going_modular/models/05_going_modular_cell_mode_tinyvgg_model.pth (torch, 35783 bytes, 10 tensors)

conv_block_1.0.weight f4 [10, 3, 3, 3]
000000 fc 44 2e 3e f4 f8 3b 3e 09 20 a6 bc e9 6e 4d 3e
       0.17018503 0.18356687 -0.020278947 0.2006184
000010 6f 67 94 bc fc 3e 82 3d 3b 0f 8c bd bc 94 0c 3e
       -0.018115727 0.063596696 -0.068388425 0.13728613
000020 53 88 46 3e fc f9 13 be 3b 92 2a 3e d9 7a 0d 3d
       0.19387941 -0.1445083 0.16657345 0.034540985
000030 ab 1a 0e 3e 97 34 cd 3c 48 f2 bb 3d f2 5b 02 bd
       0.1387736 0.02504949 0.09177071 -0.031825967
000040 f8 c3 13 3e 82 3a d1 3c ba 44 69 bd bb 0f af 3d
       0.14430225 0.025540594 -0.05695031 0.08547922
000050 f1 0d 5f bd e2 a9 fe 3b a6 67 39 bd 1a ec 22 3e
       -0.054456655 0.0077717165 -0.045264862 0.15910378
000060 22 27 01 be 0b bc 81 bd d2 f4 ec bc 88 fa 12 be
       -0.12612584 -0.063346945 -0.028925333 -0.14353383
000070 37 2c 18 bc a8 5a 5e be 3c 17 13 3e 44 cd 49 be
       -0.009287885 -0.2171427 0.14364332 -0.19707209
000080 6c b1 ec 3d 33 7c 90 ba ca 6f cb bd 18 43 b3 3d
       0.11557278 -0.0011023342 -0.099334314 0.087530315
000090 99 b4 96 3b ce cb 07 3e 17 e3 a3 bb a9 2d b5 bd
       0.0045991656 0.13261339 -0.0050014365 -0.088465996
0000a0 5f 38 c7 3c 53 bc a8 bd 59 fa 4f 3d f1 f1 0a 3e
       0.024318872 -0.08239045 0.05077586 0.13568856
0000b0 a0 da 9d 3d fe 69 c8 bd cc 66 c2 3d fc 29 a1 3c
       0.07707715 -0.097858414 0.09492263 0.01967334
0000c0 f8 c1 ac 3d d2 a0 06 be 9b b8 54 be 6a 25 ae bd
       0.08435434 -0.13147286 -0.20773546 -0.0850323
0000d0 4c 83 2c be 25 79 10 3e e4 e5 11 3c 95 46 0a 3d
       -0.16846961 0.14108713 0.008904908 0.03375872
0000e0 89 ff 6f 3c 13 16 52 bd 16 04 d4 3d 0d 24 3a be
       0.014648327 -0.051290583 0.10352342 -0.18177815
0000f0 be 30 0f bd 0f e8 34 be 01 66 88 3c ea c2 a2 bd
       -0.034958594 -0.17666648 0.016650202 -0.07947333
000100 0c 7e 43 3d 1d e6 57 bd f5 19 13 3e 9b 4f 04 be
       0.04772763 -0.052709688 0.1436537 -0.12920992
000110 0b 04 05 be 42 82 05 be 6b 6a 21 3e c7 96 4b 3d
       -0.12989824 -0.1303797 0.15763251 0.04970434
000120 4c 9e 26 3e aa 01 34 be 8e 0f 56 be 00 88 31 be
       0.16271323 -0.1757876 -0.20904371 -0.17337036
000130 e2 6b 18 be f0 bd 6d 3d fb 4d 47 3d f0 2b 10 3e
       -0.14884904 0.058042467 0.048658352 0.14079261
000140 37 a9 f0 bd c3 99 1a be be 79 a5 3d aa 49 cb bd
       -0.11751025 -0.15097718 0.08079861 -0.0992616
000150 85 e5 c6 3d 31 98 87 bd 8b e7 b6 3d 16 57 2b be
       0.09711746 -0.06620825 0.08930882 -0.1673244
000160 bc 65 ed bd 76 75 1f 3d e6 75 84 3d 22 8e d2 bc
       -0.1159167 0.03893038 0.064678 -0.02570254
000170 9d 6d 09 3e fd b9 1f 3e 94 31 e8 bd b0 ee a2 bd
       0.1342072 0.15598293 -0.11337581 -0.07955682
000180 2f 84 4d 3e 3b cc 18 bd d6 36 32 bd 0f ca 4c be
       0.20069955 -0.037304144 -0.043509327 -0.19998954
000190 8b cd f8 bd a3 52 dc 3c 38 f6 14 bd 78 0e 12 be
       -0.12148579 0.026894873 -0.036367625 -0.14263332
0001a0 b1 ca 80 bb f8 c1 0b be 5c d5 26 be 69 a4 e0 bd
       -0.0039304127 -0.13648212 -0.16292328 -0.10968859
0001b0 e2 56 1d be 35 91 df bd d6 17 48 3e a4 3c 37 3d
       -0.15365174 -0.10916368 0.19540343 0.044735566
0001c0 ba fa 87 3d 0f b4 33 be 83 cd f9 bd 86 4b 65 bd
       0.06639619 -0.17549156 -0.121974014 -0.055980228
0001d0 9e ef 14 3d 43 98 0b be 43 b3 5f bd c3 11 d5 bd
       0.03636133 -0.13632302 -0.054614317 -0.104037784
0001e0 d1 f5 d7 3c 47 fb 57 bd 20 73 21 bb bc f7 e3 bd
       0.026362332 -0.05272987 -0.002463527 -0.11131236
0001f0 00 87 e3 bd 9e 0a c7 bd ce 17 a3 bd 77 5d 2f be
       -0.111097336 -0.09718822 -0.07963525 -0.17125498
000200 86 1b 05 3e fa 0e 65 bd cf 62 0d 3e a3 ca e7 3c
       0.1299878 -0.055922486 0.13807224 0.028294867
000210 01 ea 38 be b1 9a e4 3d 44 cf 9f bd 6f 6d b7 bd
       -0.18058015 0.111623175 -0.07803205 -0.0895642
000220 c8 1b 37 be af 7f 66 be 03 c9 37 3d 3d db 53 bd
       -0.17881691 -0.22509645 0.044869434 -0.051722754
000230 1f 06 43 3d 1d cd 34 be 8d a4 07 3e 9d 44 1f be
       0.04761326 -0.1765637 0.13246365 -0.15553518
000240 74 77 5f bd 73 9c 6a 3c 42 03 6b 3d 61 c1 0d 3e
       -0.05455728 0.014319527 0.057376154 0.138433
000250 ad 35 22 3e 03 62 42 be 64 af b6 3c 00 ed cc bd
       0.15840788 -0.18982701 0.02230043 -0.10006142
000260 d5 b3 36 bd 7e 2e 30 be c6 de 11 3e d0 1c 3d be
       -0.044605095 -0.17205235 0.14245138 -0.18468022
000270 29 85 a3 3d cd d0 35 3d 1c 18 98 3c e6 87 09 be
       0.07984383 0.04438858 0.018566184 -0.13430747
000280 c1 2c 1a 3e 56 07 2b 3c 69 8c 03 3c 59 eb 3b be
       0.15056135 0.010438761 0.008029082 -0.18351497
000290 1f ad 89 3d 8d 41 3b bd ca d9 d2 bd de 0e 1a 3e
       0.06722473 -0.04571681 -0.10295446 0.15044734
0002a0 89 0b fc 3c 56 3f f5 bd a2 fd de bd 05 10 cd bc
       0.03076722 -0.11974971 -0.1088822 -0.025032053
0002b0 b0 60 bc 3d b3 55 81 bd 31 39 01 be 9d 83 a8 bd
       0.09198129 -0.06315174 -0.12619473 -0.08228228
0002c0 90 1d 24 be 16 47 5e 3d 9d 3c 07 3e 12 f6 4a be
       -0.16026902 0.05426701 0.13206716 -0.19820431
0002d0 11 6c f6 3c 6d a8 ad 3d 1b 80 b2 3c f8 cb aa bd
       0.030080827 0.0847939 0.021789601 -0.08339685
0002e0 77 3a ae 3d 65 52 af 3d 8b 1f 6f 3d 4b aa 49 bd
       0.08507245 0.085606374 0.05837969 -0.04923467
0002f0 05 45 88 bd c2 cd 38 bc d4 8c 80 bd ee d5 a8 bd
       -0.066537894 -0.011279525 -0.06276861 -0.08243929
000300 2e 92 c1 3d 57 82 0f 3e 0d e3 2e bd f6 29 95 bd
       0.0945171 0.14014564 -0.042697 -0.07283394
000310 87 29 bc bc 7f 28 0d bd c8 0c d3 3c d2 21 0f 3d
       -0.02296902 -0.03446245 0.02576293 0.034944363
000320 55 8e 44 be 64 29 b9 bd 80 6d 15 3e 27 c0 72 3d
       -0.1919492 -0.09041098 0.14592552 0.059265282
000330 17 b8 f6 bc 71 62 08 be 39 5d 09 be f2 0d 3a be
       -0.030117078 -0.13318802 -0.13414468 -0.18169382
000340 a7 13 9a bd 1d be 5a 3d da ef e3 3d b0 f9 a3 3d
       -0.0752328 0.053403962 0.111297324 0.080066085
000350 b8 18 37 be 20 8d 03 be 4a c1 24 bd eb 53 33 3e
       -0.17880523 -0.12846804 -0.040223397 0.17512481
000360 1d 51 a2 3c d5 89 71 bd a1 c1 8d 3d a0 7d 9e bd
       0.019814068 -0.058969337 0.069216974 -0.07738805
000370 ae 20 06 be 6b 15 06 3e 3e 9c b7 bd 4c e7 30 bd
       -0.13098404 0.13094108 -0.08965348 -0.043189332
000380 3e 8c 4c be 23 eb 0d 3e 23 81 1f 3e eb 00 a5 3d
       -0.19975373 0.13859229 0.15576605 0.08056816
000390 d3 c9 e5 bd 95 f5 2a be ac 73 0c be 0c 38 25 3e
       -0.112201355 -0.16695245 -0.13716 0.16134661
0003a0 ef d8 e3 3d 40 65 35 3e e7 c0 42 3d c2 7d 66 bb
       0.11125361 0.17714405 0.047547247 -0.0035170172
0003b0 e1 e9 48 bd d3 33 40 be 59 b4 4f be 7e c2 5e be
       -0.04905117 -0.1876977 -0.20283641 -0.2175388
0003c0 df f4 05 3d 83 7d 08 be f8 0c a6 bd 10 d4 e2 bd
       0.03270423 -0.13329129 -0.08107942 -0.11075604
0003d0 73 a4 0f bd 37 b4 0a be 95 c4 00 be 61 bd 82 3d
       -0.03506894 -0.13545309 -0.1257499 0.063837774
0003e0 cd 45 6a bd 7b 51 f3 3d be e2 7c bd 33 90 10 be
       -0.057195473 0.118807755 -0.061739676 -0.14117508
0003f0 1f 15 0b bd a9 0e bf bd 91 2a 71 bd d5 9b 3b be
       -0.03395569 -0.09328968 -0.058878485 -0.18321164

conv_block_1.0.bias f4 [10]
000000 80 30 21 3d d1 46 63 be 14 31 23 3e c7 ea 65 3e
       0.039352894 -0.22194983 0.1593669 0.22452842
000010 44 db 83 3e dc fe 73 bd aa dc 2f be c1 53 b1 3c
       0.25753224 -0.059569225 -0.1717402 0.021646382
000020 83 83 39 3e f7 24 44 be
       0.18116574 -0.19154726

conv_block_1.2.weight f4 [10, 10, 3, 3]
000000 57 37 2e bd bc 76 b0 bd 88 2b 02 bd 23 b9 8a bd
       -0.042533245 -0.08616397 -0.031779796 -0.06773593
000010 1c eb 84 bd 89 2a 68 bd 2b fe ea bd 8f f9 8b 3d
       -0.06490156 -0.05668119 -0.1147426 0.06834709
000020 41 5a 8a 3d 0f c4 cb bb 5a 81 bc bb 7b 52 12 bd
       0.06755496 -0.0062184404 -0.0057527246 -0.03572319
000030 21 3c a3 bd d6 51 b2 bd 18 2d a0 3d a8 1a fa bc
       -0.07970453 -0.08707015 0.07821101 -0.030530289
000040 0f 82 8c bd fd 2b e0 bc 45 62 db 3c 60 50 00 3d
       -0.06860744 -0.027364725 0.026780257 0.03132665
000050 27 53 7d 3d da ac 0c 3d ac ed db 3c e7 54 4d 3c
       0.06184688 0.03434453 0.02684673 0.012532449
000060 77 3f 18 bd dc 29 0c 3e 41 84 6c 3c 59 26 f7 3d
       -0.0371699 0.13687843 0.014435829 0.12067861
000070 d7 fc 95 3d 3b 1e 05 3e cb cd 3f 3e 61 41 10 3e
       0.07323616 0.12999813 0.18730848 0.1408744
000080 aa 93 a8 3c a6 91 09 3e d2 b5 41 3e 44 da 00 3e
       0.020578224 0.13434467 0.18917015 0.12583262
000090 d4 de 2b 3e 14 1d 5d 3e 97 4c ce 3d c6 6e e7 3d
       0.16784221 0.21593124 0.10073202 0.11300425
0000a0 0d b0 10 3d f4 b4 c4 3d b1 88 2d 3e a7 1e 19 3e
       0.035324145 0.096048266 0.16946675 0.14953099
0000b0 07 89 0e 3d de 64 b8 bd 3f 07 e4 bd ea 5a 00 be
       0.03479865 -0.09003614 -0.111341946 -0.12534681
0000c0 18 98 e4 bd 9c e6 50 bd 31 89 47 3d c1 39 cd 3c
       -0.11161822 -0.051001176 0.04871482 0.025051953
0000d0 d3 72 c9 bd 31 71 ec bd 09 f5 4b 3d 7e 59 c2 bd
       -0.09836354 -0.11545027 0.04979423 -0.094897255
0000e0 7b 34 7b bc 59 16 67 3c 4f 65 93 bd 04 9f 1a bc
       -0.015332337 0.014104449 -0.071970575 -0.009437326
0000f0 18 c1 dd bc 48 ab 37 bd 6e c7 65 bd 37 ff 3a bd
       -0.027069613 -0.04484108 -0.056098394 -0.045653548
000100 3a 86 32 bd 39 1f 94 bc 22 3f 11 3e 18 7a e3 38
       -0.04358504 -0.018081294 0.1418424 0.00010846945
000110 e1 06 0d bd 58 bd a4 3d 4c 5c c0 3d 6c b0 c7 3d
       -0.03443039 0.08043927 0.09392604 0.09750447
000120 1e 3b 26 3e 91 bc 26 3e dd 0f 9b 3c b2 57 a6 3d
       0.16233489 0.1628287 0.018928463 0.08122195
000130 52 35 14 3e 99 68 ae 3d 0f 6b c2 3c ec e5 3f 3e
       0.14473465 0.08516044 0.02373269 0.18740052
000140 d3 d6 54 3d 6f d1 75 bd 45 a0 c2 bd 60 49 9a 3b
       0.051962685 -0.060014185 -0.09503225 0.004708454
000150 55 53 3f 3d 4c 26 bf 3c 68 c2 aa 3c 23 b8 a3 bd
       0.04671033 0.023333691 0.020844653 -0.07994106
000160 1a 9b c9 bd 61 4b f3 3a 01 d2 f6 3d 5f 83 b0 3d
       -0.098440364 0.0018561893 0.12051774 0.08618807
000170 1c 91 0c bd 1c 9c 3c 3c 70 b5 55 bd ed 62 cb bc
       -0.034318075 0.011511829 -0.052174985 -0.024827445
000180 a6 e7 35 3d f2 71 a8 3d 1f cc e7 3d 2c 8c c0 bd
       0.04441037 0.08224858 0.1131823 -0.09401736
000190 fe 99 9a 3d b2 5c 89 bd 28 d7 3f 3d e7 76 be 3d
       0.07548903 -0.06707133 0.04683605 0.093000226
0001a0 6b 4a 00 3c 92 0b bd 3d 29 ef b3 bd 7e 4e 1b bd
       0.007830243 0.092307225 -0.087858506 -0.037916653
0001b0 6d 0e 69 3d 0a 2c f9 bc c9 97 d7 bc c1 df 19 bd
       0.056898523 -0.030416507 -0.026317494 -0.037566904
0001c0 de 0d 9a 3d db 3e 51 3d 6f 83 2b 3d 28 95 78 bd
       0.07522176 0.051085334 0.04187339 -0.06068912
0001d0 35 95 bf bd b7 9b a1 bd 94 d6 63 bd 5c 49 11 be
       -0.09354631 -0.078910284 -0.05562456 -0.1418814
0001e0 dc 6a ec bd 28 bc 36 bc 2d a4 ae bd 8e 50 a7 bd
       -0.11543819 -0.011153258 -0.08527408 -0.081696615
0001f0 3a 90 dc bd b7 5f 39 be 36 80 57 be c4 c5 21 be
       -0.107696965 -0.18102919 -0.21045002 -0.15798098
000200 d7 9c 2c be 3a 89 92 bd ac 99 10 be 27 91 29 be
       -0.16856705 -0.0715508 -0.14121121 -0.16559277
000210 96 c3 41 bc 65 58 a0 bd 25 da 27 bd f1 68 2c bd
       -0.0118264165 -0.0782936 -0.040979523 -0.042092267
000220 c3 87 32 bd 09 22 07 3d ff 36 77 bd ce 8d a2 bd
       -0.043586504 0.032991443 -0.060355183 -0.07937203
000230 45 41 9c bb 2e 61 55 bc df d7 99 bd 26 6f 79 3d
       -0.004768523 -0.013023658 -0.07511877 0.060897015
000240 4c 23 a1 3d ac d1 d7 3c c9 6f 28 bb 9b f8 9b bd
       0.078680605 0.026345097 -0.0025701395 -0.07615777
000250 a1 53 26 bd cc 5b e6 3c 55 1d 8d 3d f7 a7 cf 3b
       -0.0406071 0.028119944 0.0689036 0.0063371616
000260 e2 d9 d1 bc 1b 67 3b 3d 98 f0 c1 bd 21 d0 7a 3d
       -0.02561659 0.045752626 -0.09469718 0.061233643
000270 f2 e1 58 bd 6f 8f 94 bc e4 33 34 bd 64 7c 09 3c
       -0.052949853 -0.0181348 -0.0439948 0.008391473
000280 82 28 25 bd 06 95 71 3d 55 85 e1 bd 9f cb 43 bc
       -0.040321834 0.05898001 -0.11011759 -0.0119504025
000290 cf ee 19 3c f1 18 28 be 07 27 3c be 22 66 d0 bc
       0.009395315 -0.16415764 -0.18374263 -0.025439326
0002a0 e3 17 00 bd 1d a2 52 be e3 e9 08 be 15 e2 d4 bd
       -0.03127278 -0.20569654 -0.1337047 -0.10394684
0002b0 b9 b7 b0 bd f1 c7 a6 3c 68 b9 e5 3c 5f 0c b7 3c
       -0.08628792 0.020359011 0.02804251 0.022344766
0002c0 85 04 eb bc 15 2a c7 3d 32 ed 76 3c d9 c5 7e bd
       -0.028688679 0.097248234 0.0150712 -0.0622004
0002d0 f0 90 05 bc 28 97 ba 3c b8 bc 0a 3d 92 89 9e bd
       -0.008152232 0.022777155 0.033871382 -0.07741083
0002e0 43 e8 19 3d f4 68 66 bd 64 20 ba bd 65 d3 75 bd
       0.037575018 -0.056252435 -0.09088209 -0.060016055
0002f0 53 32 cb 3d 8e 8b b8 3d c7 50 c1 3d 20 72 7d 3d
       0.09921708 0.09010993 0.09439235 0.061876416
000300 c6 15 a3 3d 71 29 67 bc 7a 90 6d bd d9 ba 57 3d
       0.07963137 -0.0141090015 -0.05799911 0.052668426
000310 8b ba 5f bd 55 b0 91 bd 5d 92 28 bd 2a dd 9e 3c
       -0.05462126 -0.07113711 -0.041155208 0.019392569
000320 b2 4d 8a 3d 79 38 40 bd ed fc 8c bd d0 e4 be 3c
       0.067531005 -0.046928857 -0.06884179 0.023302466
000330 7b 28 8d bd 87 f3 af bd 5e 43 32 3d 1c 6e fa bc
       -0.06892487 -0.08591371 0.043521278 -0.030570082
000340 67 b8 a9 3d c9 81 b2 3d da 51 c9 3c 5f 76 ba 3c
       0.08287125 0.08716161 0.024575163 0.022761522
000350 7c ff 82 3b b4 ab 41 bb e4 5e a0 bc be 3a 36 bc
       0.0039977413 -0.0029551806 -0.019576497 -0.011122404
000360 63 bf f5 3c 73 ab b8 3d 4f f5 19 bd d4 7a 52 bd
       0.029998487 0.09017076 -0.03758746 -0.05138667
000370 18 75 01 bd 24 94 64 bd 55 e4 3f 3c ae 29 9a 3d
       -0.03160581 -0.05580534 0.011712153 0.07527481
000380 69 a6 a2 3d f8 3a 46 3d 1d df 9e bd c6 b9 67 bd
       0.079418965 0.04839608 -0.07757399 -0.05657365
000390 3d b9 bd bc 8e 2a 9f bc 3e 0b 0e 3c 85 2b c6 bd
       -0.023159618 -0.019429471 0.0086696725 -0.096762694
0003a0 c3 61 06 3d fb af a4 bd 83 98 88 bd 32 7a b3 bd
       0.032808077 -0.08041378 -0.06669714 -0.08763541
0003b0 50 19 bc 3d 73 6c cc bd ef d9 a2 3d 9c 3a 68 bb
       0.091845155 -0.099816225 0.07951724 -0.0035435325
0003c0 d8 d9 48 bc f3 06 87 3d f4 9f 1f bc 0a 96 6d 3d
       -0.012258969 0.06593122 -0.009742726 0.058004417
0003d0 2e 28 8c 3d 1d 13 cd bd b5 a0 fa 3c 05 ef 23 3b
       0.06843601 -0.10013411 0.03059421 0.0025014293
0003e0 a2 b9 a6 3c c2 53 93 b7 c9 0d 40 3c f6 bc 6c bd
       0.020352188 -1.7562768e-05 0.011722037 -0.057797395
0003f0 03 eb 90 bc 5e 83 c3 3d 27 cd 88 3d 73 3a ee bb
       -0.017690187 0.09546541 0.06679755 -0.0072701513

conv_block_1.2.bias f4 [10]
000000 bd 4a 10 3d bf 85 01 3c 5b 36 c5 bd f3 f7 b5 bd
       0.035227526 0.007905423 -0.09629508 -0.08885183
000010 b9 62 49 bb e9 19 54 bd 02 3a 5b bc 64 3c e2 bc
       -0.003072901 -0.051782522 -0.013380529 -0.027616687
000020 e3 2e 32 3c 5e 5f 4c 3d
       0.0108754365 0.049895637

conv_block_2.0.weight f4 [10, 10, 3, 3]
000000 d8 97 a8 bd 9c 2a 95 3c 52 21 c4 3c 4c f7 fb bd
       -0.08232087 0.018208794 0.02394167 -0.123030275
000010 c0 d0 18 be 1d 85 13 be ad 84 b9 bd 8c ad a3 bd
       -0.14923382 -0.14406247 -0.09058509 -0.07992086
000020 32 7f 29 bd 63 08 d1 3b 1d a7 96 bc 9f 54 83 bb
       -0.04138107 0.0063791736 -0.018390233 -0.0040078904
000030 dd dd 4e bb 76 3a 12 3e 6a 99 a4 bb 90 80 2a bd
       -0.0031565346 0.14280114 -0.005023171 -0.041626513
000040 ea 70 a0 3d c7 61 cb 3c b3 c4 9e 3d a4 2a 41 3d
       0.07834037 0.024826897 0.07752361 0.047159806
000050 a7 53 be 3d ab 47 b8 bd aa 36 48 3d 11 d9 99 3d
       0.09293299 -0.089980446 0.048880257 0.07512105
000060 ef 59 86 bd a1 e1 a8 3d 87 86 72 3d 14 55 13 3c
       -0.06560122 0.0824616 0.059210327 0.008992452
000070 a5 48 70 3d 6e 4d f9 bc ad 5f ac bd 6f 41 0d 3d
       0.05866303 -0.03043243 -0.08416686 0.03448623
000080 fd 23 1b 3d dc 15 7a bd 58 84 71 3d 44 eb a5 bd
       0.037876118 -0.061056003 0.058964103 -0.08101514
000090 19 a6 a1 3d 95 a9 ba 3d ed 2c a9 3c c7 a5 9d bd
       0.07893009 0.091143765 0.020651305 -0.07697635
0000a0 cf 5d 26 3d 81 e9 00 3c a5 ea 91 3c 14 4c b8 3c
       0.040616807 0.007868172 0.017812083 0.022497214
0000b0 f3 7c 8f 3d 70 88 3e bd 58 2d 09 bd 26 e8 d5 3c
       0.07006254 -0.046516836 -0.03349051 0.026111674
0000c0 ae 86 66 3a 4f 99 98 3d 8d df 87 bd a9 28 e7 ba
       0.00087938725 0.07451116 -0.06634436 -0.0017636019
0000d0 94 9c 99 3c 79 0b 1b bd c7 5a c1 3d 2b 37 df 3c
       0.01875142 -0.037852738 0.094411425 0.027247986
0000e0 34 99 b7 bd ff 7c e2 3b 18 80 0c bd 4f 3d 8e 3c
       -0.08964768 0.0069118734 -0.034301847 0.017363219
0000f0 a4 8c ad 3b 18 27 af bd c6 b7 26 bc 66 14 f2 3b
       0.0052963067 -0.085523784 -0.010175651 0.0073876856
000100 92 12 3a bc b2 ca e1 3d 27 97 bc 3a e2 5d c5 3d
       -0.011356967 0.11024989 0.0014388309 0.09637047
000110 5e cf 3e 3d de e8 86 bd a4 5f 43 3d e9 ed d3 3d
       0.04658448 -0.06587385 0.047698632 0.10348112
000120 99 0a 98 bd 7e 64 80 bd b0 89 de 3d 11 50 a4 3d
       -0.07423896 -0.06269167 0.108661056 0.08023084
000130 8e 10 5b bd d1 d7 8b 3d 44 d9 0f bc 6f a7 de bd
       -0.053482585 0.06828273 -0.0087798275 -0.10871779
000140 8e cd 21 3b 5e 9a 80 3d 86 32 98 39 ec 10 7e 3d
       0.002468917 0.06279443 0.00029029342 0.062027857
000150 47 f6 71 bd 1d 28 dd 3d ae 20 f5 3d 81 41 b3 3d
       -0.05907276 0.107986666 0.11969124 0.08752728
000160 a5 f9 43 3d 2d 7f 77 3d 6c 40 cb bd 32 b0 9e bc
       0.0478455 0.06042402 -0.09924397 -0.019371126
000170 a1 49 e7 3b f8 9e 71 bd cb ee bb bd ad fb 80 3d
       0.007058338 -0.058989495 -0.091764055 0.06298003
000180 ac 40 87 3d f9 31 d8 bd 4d 57 aa 3c d2 4a c3 3c
       0.06604132 -0.105564065 0.020793581 0.023839388
000190 fb f7 ac 3d 5a cb 29 3d ce 92 a5 3d 5e 17 45 bd
       0.08445736 0.041453697 0.080846414 -0.048117988
0001a0 f2 12 6b 3d 9c 52 96 3d 29 1d e7 bd 91 a3 d2 bd
       0.057391115 0.07339975 -0.11284859 -0.10285104
0001b0 98 c7 ae 3c 59 c1 6b 3d b6 5b 1f bd 7d 34 3e 3c
       0.021335408 0.057557438 -0.03890582 0.011609194
0001c0 91 75 20 b9 58 e9 55 3c 0b 01 68 bd 04 87 73 3d
       -0.00015302586 0.013056122 -0.05664162 0.059454933
0001d0 9e 8f 8f 3d 69 5a a4 bd 84 e5 c3 bb 11 9e d2 3b
       0.07009815 -0.08025057 -0.005978288 0.0064275344
0001e0 41 bd 2a 3d d6 1b c9 3d 97 3c fd 3c 24 f8 01 bd
       0.041684393 0.098197624 0.03091268 -0.031730786
0001f0 bb dc b1 3d ae 5c 04 bd 20 71 16 bd ed 0a 18 3c
       0.08684679 -0.03231495 -0.03672898 0.009279949
000200 85 3b 9d bd 1d ea 8e 3b af 43 9b bd e3 09 f7 3b
       -0.07677368 0.0043614046 -0.07581269 0.0075390204
000210 43 a3 43 3c 64 53 e8 3b 74 b1 b0 bd 4e 26 c0 bd
       0.01194078 0.007090019 -0.086275965 -0.09382306
000220 a1 bc 5f 3d 52 a5 ad 3d 76 86 cc bd 6f df 06 3d
       0.05462325 0.08478798 -0.09986584 0.032927927
000230 6b e1 ab bd 0a 48 dd 39 1b c8 d5 3d 94 c9 96 3d
       -0.083926044 0.00042206078 0.10438558 0.07362667
000240 66 d4 aa bd 4d 47 6e 3d f4 e0 4b 3d 3a 43 9f 3b
       -0.08341293 0.058173466 0.04977508 0.004860309
000250 ad 2e d8 3d 9f 0d 58 bd 10 90 b7 bc 17 81 44 bd
       0.10555778 -0.052747365 -0.022407562 -0.047974672
000260 5b 42 68 3c 7c ff 8f 3c 41 2c 4d 3a 20 8f 91 bd
       0.014175977 0.01757788 0.0007826724 -0.07107377
000270 9d 35 4c bd 32 be 1e 3d 56 bb d2 bd 5d 8f 93 bc
       -0.049855817 0.038755603 -0.10289638 -0.018012697
000280 3d 67 89 bb db 5d 62 bd 31 77 2f 3d 3b f0 48 3c
       -0.004193215 -0.05526529 0.04283828 0.012264307
000290 3d 18 8d 3d 2c 32 71 bc 08 99 7a bd b9 c8 a3 3d
       0.06889389 -0.014721435 -0.0611811 0.07997269
0002a0 e9 01 9f 3c f6 4e f7 bc 31 49 8e bd b6 67 c5 3b
       0.01941009 -0.030189019 -0.06947554 0.006024326
0002b0 f7 1d ec bd 50 98 04 3c 10 78 1b 3d a7 a1 da bd
       -0.11529153 0.008092955 0.037956297 -0.10675364
0002c0 c3 80 b1 bd d3 39 b7 bd 77 38 98 3d a2 be 91 3d
       -0.086671375 -0.08946576 0.07432645 0.071164384
0002d0 cd 50 ab bd 12 81 4f 3d 02 0c 44 bd 7d 4e 41 be
       -0.08365021 0.0506602 -0.047863014 -0.18877597
0002e0 5d 59 b2 bb d2 9c 00 3d ae 82 83 3d 15 21 49 bc
       -0.005442782 0.031399556 0.064214095 -0.012275954
0002f0 c9 6e b9 3d a5 c8 ba 3d 6f 4a 9c 3d a9 b1 ff bd
       0.09054334 0.09120301 0.076313846 -0.12485058
000300 55 94 c7 3d 1f b7 d7 bd 43 50 77 3d 76 02 f7 bc
       0.09745089 -0.105329745 0.060379278 -0.03015254
000310 89 31 1c be ca e3 20 bd 1f 64 0f bd 01 fa a9 bd
       -0.15253271 -0.039279737 -0.035007592 -0.082996376
000320 41 57 c9 bc 91 7e c4 3c 65 0b d4 3d 3d 43 3c bc
       -0.024577739 0.023986133 0.10353736 -0.01149064
000330 9d 0d b5 3d c7 01 b5 3b 09 e9 a4 3c 6e 21 e5 3c
       0.08840487 0.0055238935 0.020130651 0.027970042
000340 b7 b0 9d bd fa f5 a5 bd 0b 1f cf bc e3 36 b9 bd
       -0.07699721 -0.08103557 -0.025283357 -0.09043672
000350 83 5d 2f bd bb 82 4f 3c 05 0a 9e bd d7 aa 17 bd
       -0.04281379 0.012665446 -0.07716755 -0.03702816
000360 ce 8c d7 bc f3 83 8c bc 97 22 89 bd db 3c 62 bb
       -0.026312258 -0.017152762 -0.066960506 -0.0034521136
000370 ce f2 b5 bc de 7a c0 3c 0c 58 dd b9 81 74 73 bd
       -0.022210505 0.023496088 -0.00042218005 -0.05943728
000380 63 8d 2f bd 4e 95 06 bc 3b 0c 9d bd f4 8a da 3b
       -0.042859446 -0.008214308 -0.076683484 0.0066693965
000390 86 ce 13 bc ee 3c 2d 3d be 2a f0 3c 1a 48 8b 3d
       -0.009021407 0.042294435 0.029317256 0.06800862
0003a0 b4 c7 7b bb 85 e9 b5 bd 27 37 31 3d a2 08 8e bd
       -0.0038418593 -0.08882431 0.043265488 -0.0693524
0003b0 14 b5 51 bb d2 c0 05 bd 05 2f 2d bd 00 3c 17 bd
       -0.00319988 -0.03265459 -0.04228117 -0.036922455
0003c0 e9 7d c8 3d 71 e6 6e 3d 53 92 e3 3c 75 b9 0b 3e
       0.097896405 0.058325235 0.027779734 0.13644965
0003d0 3b 7a b4 bd 56 16 2e 3b 36 87 ac 3d c6 5b 57 3d
       -0.08812376 0.0026563606 0.08424227 0.052577756
0003e0 3f 27 f3 bd af 56 1e 3c ad 9f 03 be 68 81 9c bd
       -0.1187272 0.009664222 -0.1285388 -0.0764187
0003f0 60 64 88 bc 4b fe a8 bd 2b c1 c2 bd e5 1f 83 bd
       -0.016649425 -0.082516275 -0.095095 -0.06402568

conv_block_2.0.bias f4 [10]
000000 9d 55 4d 3d 79 a0 1a bd e9 79 39 3c 1d fb 8c 3d
       0.050130475 -0.037750695 0.01132057 0.068838336
000010 9c d1 93 bd 45 18 78 bd 9f 53 4a 3d 86 ae 02 bb
       -0.07217714 -0.06057002 0.049396154 -0.001994045
000020 d9 5e 4a bd f4 9f bd bd
       -0.04940686 -0.09259024

conv_block_2.2.weight f4 [10, 10, 3, 3]
000000 0a 67 c3 3d 4a 2f 4f bc 19 ab 04 bd ca 5f a3 bd
       0.095411375 -0.012645552 -0.032389734 -0.07977255
000010 4f 95 b4 bd a1 d8 08 bd fc 84 77 bd cb 63 66 3c
       -0.08817541 -0.03340972 -0.06042956 0.014061878
000020 97 5c 95 bd da a1 29 bd 5c bb 45 3d bb c0 a6 bc
       -0.07293051 -0.04141412 0.048274383 -0.020355573
000030 cb 64 27 bd 39 72 cc 3c 3e da 8d 3d a4 0b 49 3c
       -0.040867608 0.02495681 0.06926392 0.012270842
000040 52 9e 7b 3d 5c b8 6e 3d d8 65 30 3d be 4b 64 3d
       0.061430283 0.058281288 0.043065876 0.055736296
000050 66 58 2b 3d 37 36 fd 3c cb 7a de 3d 00 8b bd 3d
       0.04183235 0.03090964 0.10863265 0.09255028
000060 a6 7c 0f 3d 76 c3 5e bc f1 3f 7a 3d 50 30 91 bd
       0.035030983 -0.013596406 0.061096136 -0.07089293
000070 08 42 a8 3d 7d d5 67 3d 21 ed 57 3d db ee 1f bd
       0.082157195 0.056600083 0.052716378 -0.03904615
000080 db d2 ff bd 2e 46 20 3d 7c 55 c8 bd cf 45 10 bd
       -0.12491389 0.03912943 -0.0978193 -0.035222825
000090 5e 9e 30 3d ae a5 f8 bd 3e 38 0c 3c 43 9d 7a bd
       0.04311978 -0.12140976 0.008558331 -0.061185133
0000a0 ac 57 45 3d 55 25 bf bd 2a 8b 84 3d b1 5f 87 3d
       0.048179314 -0.093332924 0.06471856 0.066100486
0000b0 81 8c 25 3d da c2 db 3d ba 26 7f 3b 80 27 d8 bd
       0.040417198 0.10730524 0.0038932995 -0.10554409
0000c0 61 d9 ef 3d 41 7a 90 3c e7 96 ab bb 04 ad 63 bd
       0.117113836 0.01763642 -0.005236495 -0.055584922
0000d0 13 57 33 bd 94 3d e0 bc 2c 1e bd 3d 17 05 71 3d
       -0.043784212 -0.027373113 0.092342705 0.058842745
0000e0 93 14 75 3d 13 0e fd 3c 49 f9 fd bd 98 4c e1 bd
       0.059834074 0.0308905 -0.12401063 -0.11000937
0000f0 3e 2c cb bd a1 30 e3 bd cb 15 95 3c 87 74 ba 3c
       -0.09920548 -0.110932596 0.018198868 0.022760643
000100 0c d4 91 3d e3 b0 a2 bc 9f 6f d5 bd b8 78 31 bd
       0.07120523 -0.019859737 -0.10421681 -0.043328017
000110 f3 c6 71 3d e8 fe 5d 3d 98 09 af 3c df eb 32 bd
       0.059027623 0.054198176 0.02136688 -0.043681975
000120 69 7c fd bd 0e 26 00 bd b1 d3 89 3d 9e e6 8a bd
       -0.12377245 -0.03128629 0.0672983 -0.06782268
000130 43 52 9b 3d 43 c6 eb 3c 84 c7 76 bc 2c 95 b7 3d
       0.075840496 0.028781062 -0.015062217 0.08963999
000140 c4 bc 0a bd 6f 81 65 bb 2c 76 24 bd a0 c6 cc bd
       -0.033871427 -0.0035019775 -0.04015176 -0.09998822
000150 31 3b 8b 3c 54 87 f9 3c 9b 61 59 bd 06 6e 84 3d
       0.016995998 0.030460037 -0.0530716 0.06466298
000160 9a a7 c1 bd fc 19 d0 bd e2 80 12 be 26 26 eb bd
       -0.094557956 -0.10161206 -0.14306977 -0.114818856
000170 e6 f4 93 bd b8 b5 bf bd c0 ac 03 bd 04 29 2c be
       -0.07224445 -0.09360832 -0.03214717 -0.16812521
000180 72 63 d7 bc cc b9 35 bd ab e9 52 bb 8b 9c 93 3d
       -0.026292536 -0.044366643 -0.0032182734 0.072075926
000190 39 e1 2c 3d 5f 25 ab bd 8e 5a b5 bd 5f 21 14 bd
       0.042206977 -0.08356737 -0.088551626 -0.036164638
0001a0 ad e7 9e bd 3a 86 dc 3b 23 3f c1 bc 8f e6 61 3d
       -0.077590324 0.0067298682 -0.023589676 0.05515152
0001b0 07 c4 2e 3d 8b 77 e1 bc 7d d7 52 bc 99 58 99 3c
       0.042667415 -0.027522823 -0.012868759 0.018719004
0001c0 35 6d cb bc a7 32 7b 3d 6d 2d c0 bd 24 07 31 3d
       -0.024832347 0.061327603 -0.09383664 0.0432197
0001d0 5d 83 b3 bd 8b 14 08 be 50 f9 91 bd 49 e3 dd 3b
       -0.0876529 -0.13289087 -0.07127631 0.0067714793
0001e0 02 d1 e7 3c 7a 7a f2 bc eb 94 93 bd 17 7d 49 bd
       0.028297905 -0.029599417 -0.07206138 -0.04919156
0001f0 ec c2 cc bd 35 7c 86 bd 11 8b dc bb c8 ff bd 3d
       -0.09998116 -0.06566659 -0.006730445 0.09277302
000200 da 8f 66 3d 23 6b b3 bd ae af 44 bb 37 c2 82 bd
       0.05628953 -0.08760669 -0.003001194 -0.063847
000210 09 16 9d ba 5e 8d a9 bd fb 75 2d 3d 89 b5 da bd
       -0.0011984716 -0.08278917 0.042348843 -0.10679156
000220 55 41 e1 3d 80 98 d1 3d 3f f9 8a bd 12 8c a6 bd
       0.10998789 0.10234165 -0.06785821 -0.08132185
000230 23 bc e8 3c 33 cd c9 ba 64 fe 50 3d b1 fa 51 bd
       0.028410023 -0.0015396237 0.051023856 -0.05126447
000240 d9 43 eb b9 47 73 0b be 2e 54 c1 bd 0f 21 cb bd
       -0.00044873243 -0.13618194 -0.09439884 -0.09918415
000250 7f 22 3b 3b a3 c8 51 bd fb a5 03 be 22 57 ba bd
       0.0028554497 -0.051216733 -0.12856285 -0.090986505
000260 d4 b1 93 bd 57 ef e5 bd 5b 27 17 bb 04 c6 a3 3c
       -0.072116524 -0.11227291 -0.002306423 0.019991882
000270 8e a7 f5 bc 96 64 63 bd fe 6d 84 bc 7c 2b bf bd
       -0.029987123 -0.055515848 -0.01616573 -0.09334466
000280 79 72 9b bd ee bd 6e bc 00 c8 bf 3d c8 c4 04 bd
       -0.07590193 -0.01457165 0.09364319 -0.032414228
000290 ea 13 9f 3d fa ea 29 bd 7b dd e5 bc 83 ae 99 bd
       0.0776747 -0.041483857 -0.028059712 -0.075039886
0002a0 d5 7d 7d 3d de 34 d2 3d b1 17 11 bb 97 29 89 3d
       0.06188758 0.1026399 -0.0022139365 0.06697386
0002b0 64 93 b0 3d 01 76 56 3d e3 5c 5e 3d 94 83 cd bd
       0.086218625 0.05235863 0.054287802 -0.10034862
0002c0 b8 da ca bd f8 b1 a5 bd 13 0c 07 3d c5 ba ba bd
       -0.099049985 -0.080905855 0.0329705 -0.09117655
0002d0 11 ed 36 be 4b 6e 24 be c6 b7 44 be d9 d2 b7 bc
       -0.17863871 -0.16057698 -0.19210729 -0.022439407
0002e0 f7 f0 4f bd f2 2a 0c be f8 51 0e 3e 57 98 27 3c
       -0.05076691 -0.13688257 0.13898456 0.010229192
0002f0 3d d0 d7 3b 4e 2f 0d 3d ec 5a 8d 3d 31 19 2a bd
       0.0065861032 0.03446894 0.069021076 -0.04152793
000300 8b c9 dc bd 9f c7 87 bd 14 34 80 ba b4 69 8b 3c
       -0.10780629 -0.066298716 -0.0009781145 0.017018177
000310 7c 1f d7 3c 93 d0 86 bd f2 78 c9 bd e8 70 e0 bd
       0.02626013 -0.06582751 -0.098375216 -0.10959035
000320 0f e6 59 bd 38 75 b2 bc e5 13 98 bd fc d8 e8 bd
       -0.053197917 -0.02178441 -0.074256696 -0.113695115
000330 4d 3c bd ba c9 30 e2 bd 13 3c ff bd 49 42 22 be
       -0.0014437527 -0.11044461 -0.1246263 -0.15845598
000340 bf 28 e3 bd 3b 30 dc 3c b7 e2 59 bc 64 3a d2 bd
       -0.11091756 0.026878467 -0.013298682 -0.102650434
000350 ee b6 a2 bd 90 d4 6d 3d ed 7c 79 bc 3e 78 fe bd
       -0.07945047 0.058064044 -0.0152275385 -0.12425278
000360 e5 29 9e bd b6 2a d9 bd 7f 60 7a bc 33 38 d4 bd
       -0.077228345 -0.106038496 -0.0152817955 -0.10362282
000370 02 25 e3 bc 09 23 22 bd 83 94 c9 3d a0 1e c2 3d
       -0.027727608 -0.039584193 0.098427795 0.094784975
000380 13 ff 8d 3d a3 1b 63 3d 01 20 ab bd 07 2e b6 3c
       0.06933417 0.05544628 -0.08355714 0.022238744
000390 8c 2f 47 bd 60 d3 87 bc da ba 82 bc 5c 21 32 3c
       -0.04862933 -0.016580284 -0.015958238 0.010872211
0003a0 7b 67 d1 bd 70 c3 44 3d 0a c0 64 3c d7 44 0e be
       -0.102248155 0.048037946 0.013961801 -0.13893448
0003b0 11 65 24 bd d5 cf 16 bd 7c e5 84 bd a5 eb 6c bd
       -0.040135447 -0.036819298 -0.06489083 -0.057841916
0003c0 ab b7 0c 3e fc 35 34 3d ad 56 55 bd c2 15 4b bd
       0.13741939 0.043996796 -0.052084614 -0.049581297
0003d0 0b 6b 26 3d 89 4e ab 3c 84 52 e3 bb 8e 04 d5 bc
       0.040629428 0.020911472 -0.006937327 -0.026003148
0003e0 29 56 55 bd c0 b1 2c bd 53 75 82 bd f7 ef f6 3b
       -0.05208412 -0.042161703 -0.06370034 0.0075359303
0003f0 bb 82 f2 3c c1 4e a5 3d 3f 14 c3 bc 6c 45 f7 3b
       0.029603353 0.08071662 -0.023813365 0.0075461175

conv_block_2.2.bias f4 [10]
000000 b6 bd 63 3d 4a 3d 17 3e a7 99 ea 3d c1 a4 c4 bd
       0.055600844 0.14769474 0.11455088 -0.09601737
000010 a8 56 6b bc cf cc 66 bd e8 1e 32 bd 5e 98 96 3d
       -0.014363922 -0.056347664 -0.043486506 0.073532805
000020 f3 50 75 bd 0b 9b 9a bd
       -0.059891652 -0.07549103

classifier.1.weight f4 [3, 1690]
000000 d4 ed 4d bd ec 07 2a bc 3f 0d 0c bd 2d 93 14 bb
       -0.05027564 -0.010377865 -0.03419232 -0.0022670731
000010 71 50 93 bb 53 de b9 bc 1a 72 9c 3c 08 59 16 3d
       -0.0044956733 -0.02268902 0.019097377 0.036706
000020 73 a6 be 3b a6 44 bb bb d3 62 ff bc a4 63 3a bd
       0.005818182 -0.0057149706 -0.031175053 -0.04550518
000030 31 07 14 bc b0 0f d1 bc 2c 50 01 3d b3 47 7b ba
       -0.009034918 -0.025520176 0.0315706 -0.0009585574
000040 0d bb 96 bc 75 95 23 bd 7c d7 37 bd dc 2d 39 bb
       -0.01839974 -0.039937455 -0.044883236 -0.0028256094
000050 3b 5b 64 3c 2e d7 bc bc d5 41 0a bc 8f 2c a1 bc
       0.013937767 -0.023051824 -0.008438547 -0.019674568
000060 db e2 74 3c 99 73 89 3c f7 60 52 bb 47 ad 66 3c
       0.014946665 0.016778754 -0.0032101253 0.0140793985
000070 1a be cd bc 84 15 26 bd ed 7e 12 bd f2 ce f8 bc
       -0.025115062 -0.040547863 -0.035765577 -0.030372117
000080 4b 69 51 bc 38 39 5a ba 92 05 3f bd db 0d 8e bc
       -0.012781451 -0.00083245663 -0.04663617 -0.017340591
000090 bc bf 24 bc 8b 81 10 3c e0 9c c6 3c 78 8d 24 bd
       -0.010055479 0.008819948 0.024244726 -0.040173978
0000a0 0d 03 16 3c ed a2 a3 3c fe 37 89 3c 33 1e 66 bc
       0.009156001 0.01997515 0.016750332 -0.014045286
0000b0 e1 9d de bc 96 80 93 bc 17 ec 6b bc 5f 3b 33 bd
       -0.027174892 -0.01800565 -0.01439955 -0.043757793
0000c0 e5 c8 4e bd 66 72 ef bb b5 df 48 3c b4 04 16 3d
       -0.050484557 -0.0073073385 0.012260367 0.03662558
0000d0 5c ab 32 bc 80 26 4c 39 de 36 c0 bc 93 d7 4f bc
       -0.010905113 0.00019469298 -0.023463663 -0.012685674
0000e0 27 63 1c bc d7 a1 86 bd c7 96 ab 3b 65 e7 41 3c
       -0.009545124 -0.06573837 0.00523648 0.011834954
0000f0 a1 49 3c bc c1 af 1f 3c cf d9 c0 ba f9 9d 91 3c
       -0.011492164 0.009746493 -0.001471335 0.017775523
000100 ff 43 90 3c 9f d7 cb bc f0 13 f1 bc 5c 48 75 bc
       0.017610548 -0.02488309 -0.029428452 -0.014970865
000110 50 96 81 bc e1 c6 f3 bc 98 32 29 3b 20 14 29 3d
       -0.015818745 -0.029757919 0.002581751 0.04127896
000120 92 46 d2 3c 5e fb 39 bc b7 e2 e0 bc f0 77 86 bc
       0.025668416 -0.0113514345 -0.027451856 -0.016414613
000130 ba aa dd 3b e1 2f cc 3c a9 54 ba 3b 07 b5 13 3d
       0.006764737 0.024925174 0.005686362 0.036061313
000140 0b 8e ef 3c f2 00 bc bb 11 30 67 bc 0a 5f 01 3c
       0.029242536 -0.0057374174 -0.014110581 0.007896194
000150 5a 34 36 3b 4f c2 bd b9 d2 6c d5 bc b1 79 1b 3c
       0.00278022 -0.0003619366 -0.026052866 0.009489463
000160 cd 35 a9 bc d6 97 c6 ba 82 30 f5 3a fb 96 aa 3c
       -0.020655537 -0.0015151452 0.0018706473 0.020823946
000170 70 43 14 bc 63 06 8a bc ad 3c 0d bd a1 e5 38 bb
       -0.0090492815 -0.016848749 -0.034481693 -0.0028213041
000180 51 bd 24 bd b4 01 3f bc 52 06 f7 bc cb c9 8f bc
       -0.04021961 -0.011658121 -0.030154381 -0.017552277
000190 08 b2 cb bb a5 1b 3e bc 12 50 6c bc dd c6 36 3c
       -0.0062162913 -0.011603271 -0.014423387 0.011155811
0001a0 dd 20 e4 bb 66 f4 bc bc 93 52 4b bd 26 e8 1d 3c
       -0.0069619254 -0.023065757 -0.049639296 0.009637868
0001b0 d1 fd 99 3a e2 a2 27 bd d4 97 fa bb 8f 26 24 bc
       0.0011748617 -0.04092682 -0.007647494 -0.010018959
0001c0 7d eb 0d 3c 71 18 c9 ba 54 4d 32 3b 70 4e 08 bd
       0.008662102 -0.0015342367 0.0027206736 -0.03327793
0001d0 8d 49 c3 bc bb 90 1f 3d 46 b2 65 3c 47 8d 91 ba
       -0.023838783 0.038956385 0.0140195545 -0.0011104726
0001e0 27 ba 9f bb fa e3 46 3c cd 62 78 bc 71 22 41 bd
       -0.004874486 0.012139315 -0.015160275 -0.047151987
0001f0 a1 fa 01 bd c3 70 b8 bc 45 56 6e bb 52 62 d7 bc
       -0.03173316 -0.022514706 -0.0036367339 -0.026292
000200 f7 7e ba bc 48 94 9e bc f1 2c 8f 3c 0f 2f d9 3b
       -0.02276562 -0.019357815 0.017477484 0.0066279243
000210 0a 6f ce bc aa 4c e2 bc 2f 48 a2 bc 1d a0 0d bd
       -0.025199432 -0.027624447 -0.01980981 -0.034576524
000220 b2 8c 04 bc 72 2e 37 bc bf 57 bc 3c 07 54 ae bc
       -0.008090185 -0.011180507 0.02299106 -0.021280302
000230 1f d3 08 bd bc 28 91 bc cc 27 13 bd 87 5a c1 3c
       -0.033404466 -0.017719619 -0.035926625 0.023602737
000240 d2 7d 6b 3c 99 3d 14 3d ee bb 1a bc f7 16 80 3b
       0.01437326 0.036191557 -0.00944422 0.0039089876
000250 a4 15 11 3c 14 eb 83 bc b9 4d f8 3b a9 c0 d4 3b
       0.008855257 -0.016103305 0.0075776246 0.0064926934
000260 ad c1 67 bd 7d 81 fc bc c5 06 e6 bc 03 2c 06 3d
       -0.056581188 -0.030823464 -0.0280794 0.032756817
000270 9a 81 22 bc d7 36 1f 36 53 f4 12 3d 86 2b cb bc
       -0.009918595 2.3724767e-06 0.035877537 -0.024801027
000280 b4 db 75 bc 0a 17 b5 bc b7 50 18 bb b9 e5 09 bd
       -0.015005995 -0.022105712 -0.002324147 -0.033666346
000290 14 9c 12 bc 74 aa 0d bd b5 57 c6 3b 4a 99 b2 ba
       -0.008948345 -0.034586385 0.006052936 -0.0013626006
0002a0 5d 10 17 3d 42 73 88 bd f8 30 e2 bd 36 1a dd bd
       0.03688084 -0.06662609 -0.11044496 -0.10796015
0002b0 93 78 85 bd 08 aa 74 bd d2 dc 16 bd 1e 65 9b bc
       -0.06517138 -0.059732467 -0.036831684 -0.018969115
0002c0 67 e9 d2 ba 82 b1 5d bd e8 fb 79 bd 5c 85 72 bd
       -0.0016091288 -0.054124363 -0.061031252 -0.059209213
0002d0 9a da e6 bd e8 7b 98 bd c3 50 aa bd d2 24 7d bc
       -0.11272164 -0.07445508 -0.08316185 -0.015450673
0002e0 ac 8c 84 bd 09 e7 81 bd b3 67 83 bd 39 cd af bd
       -0.064721435 -0.063428946 -0.064162634 -0.08584065
0002f0 29 00 d6 3c e2 2b 61 bb 5e 18 67 bd 73 b1 42 bd
       0.026123123 -0.0034358432 -0.056419723 -0.04753251
000300 ef a1 ad bc c3 75 c5 bc 05 94 59 bd b6 93 8c bb
       -0.02119538 -0.024104005 -0.053119678 -0.0042900695
000310 ef 94 7d 3b 28 79 d2 bb 70 a6 90 bd c0 d6 b3 bd
       0.0038693508 -0.0064231344 -0.070629954 -0.08781195
000320 14 22 70 bd 37 f6 0f 3b f3 0d ea bc ad 0e 8b bd
       -0.05862625 0.0021966824 -0.028571105 -0.067899086
000330 cd 0b 3d bd 96 a7 86 bc 3e 65 e5 3c 57 21 b4 3d
       -0.046153832 -0.016437333 0.028002378 0.087954216
000340 fb cf 3a bd 8e 91 0e bd d6 fe 16 bd 37 67 1b bd
       -0.045608502 -0.03480678 -0.036864124 -0.03794023
000350 3e 09 87 bd 81 d1 0d be b8 de c9 bd a1 e9 8c bd
       -0.0659356 -0.1384945 -0.09856933 -0.06880499
000360 6b 68 cc bd a1 85 85 bd ad e2 d2 bd 72 75 33 bd
       -0.09980854 -0.06519628 -0.10297141 -0.043813176
000370 da f3 41 3d dd b5 6c bc c7 ae f7 bc 5b 31 ab 3c
       0.047351696 -0.014447656 -0.030234708 0.020897558
000380 45 57 ae bc 09 2b a6 bd 9c cf d8 bd 03 57 dc bd
       -0.021281848 -0.08113677 -0.10586473 -0.10758784
000390 a6 31 90 bd 2c be 8f bd 08 6d b5 bd a1 d8 af bd
       -0.0704072 -0.07018694 -0.08858687 -0.085862406
0003a0 53 ff 82 bd 63 36 fa bb 26 1d a5 3c f7 53 00 bd
       -0.063963555 -0.007635878 0.0201555 -0.031330075
0003b0 0f ad b1 bd 16 0d a2 bd 13 d1 d8 bd a6 c9 d2 bd
       -0.086755864 -0.07912652 -0.10586753 -0.10292368
0003c0 c2 6b 2b bd fe 08 a8 bc 12 6a 07 bd a7 15 1c bd
       -0.041850813 -0.0205121 -0.03306014 -0.038106587
0003d0 09 2a a1 bd 6f e6 4f bd 73 c9 fb bb 8e 0f 67 bd
       -0.07869346 -0.050756868 -0.0076839267 -0.05641132
0003e0 c2 8e 96 bc 1f d7 f5 bc 2b 2c 19 bd 6c 65 a9 bd
       -0.01837862 -0.030009804 -0.037395637 -0.08271298
0003f0 42 32 6e bd c0 d3 b6 bd 70 2e 8a bd e2 81 79 bd
       -0.0581534 -0.08927107 -0.067471385 -0.06091488

classifier.1.bias f4 [3]
000000 62 e8 3f 3d ab 9a 15 bd b5 ae 0c bd
       0.046852477 -0.036524456 -0.0343463
