going_modular/models/05_going_modular_script_mode_tinyvgg_model.pth (torch, 35783 bytes, 10 tensors)

conv_block_1.0.weight f4 [10, 3, 3, 3]
000000 f0 a5 86 3c 44 ce b7 3d b6 20 a1 bd 47 7a 53 3d
       0.016436547 0.08974889 -0.07867567 0.051630285
000010 fe 78 0c 3e ac ef ac bd df 21 11 3e 66 ff a3 bd
       0.1371803 -0.08444151 0.14173077 -0.08007698
000020 59 5d ae bd c4 a4 4b bd d3 e8 91 3d c1 2a 0d be
       -0.085138984 -0.04971768 0.07124486 -0.1378584
000030 78 f8 69 bd c3 f5 be 3d 88 25 d5 bd c5 06 3b be
       -0.057121724 0.09324219 -0.10407549 -0.18264301
000040 07 38 06 3d 7f 57 3d be 5e b5 71 bd 82 57 e9 3d
       0.032768276 -0.18490408 -0.059010856 0.11393644
000050 0e de bf 3a ff 7a 23 bd 8e a8 87 3d 2e 8e 0c 3e
       0.0014638321 -0.03991222 0.06623946 0.13726112
000060 06 28 37 be e8 87 18 3e 04 1d f7 3b 1d 52 12 b9
       -0.17886361 0.14895594 0.0075413007 -0.00013954235
000070 dd 4a 3a be 9d 86 83 bd 06 9b 0d 3e db 64 d9 3d
       -0.1819262 -0.0642216 0.13828668 0.1061494
000080 20 a5 ea bd 82 a8 90 3c e3 f9 04 3e 03 6b 12 3d
       -0.11457276 0.017658476 0.12985949 0.035746586
000090 b7 15 8a 3d 7f ac 1a 3d e2 d0 ef bd ab 08 82 bd
       0.06742423 0.03776216 -0.11709763 -0.063493095
0000a0 ee c1 32 3e 3e 47 24 bd c2 8b f9 3d 29 fc 37 3e
       0.17456791 -0.040107004 0.1218486 0.17967285
0000b0 92 8f 30 bd f0 b5 ff bd 83 7a de bd 30 55 23 be
       -0.04310567 -0.12485874 -0.10863211 -0.15950465
0000c0 30 a5 34 be 2f aa 06 3e 6d 3c 2b be c6 4e 41 3e
       -0.17641139 0.13150857 -0.1672227 0.18877706
0000d0 92 a1 37 be 91 2c fa 3d b7 2b 8c bd e0 f4 95 3d
       -0.17932728 0.122155316 -0.068442754 0.07322097
0000e0 17 f0 1b 3e 03 5f 93 3d f1 22 8c 3d 47 ac 21 bd
       0.15228306 0.071958564 0.06842602 -0.039470937
0000f0 7d 4c a7 bc 07 03 ff 3d c3 31 53 bd ef 12 2f be
       -0.020422215 0.12451749 -0.05156113 -0.17097066
000100 9b ae 32 be a2 ff f3 bd e1 79 0d 3e 2b 60 1f be
       -0.17449419 -0.119139925 0.13816024 -0.15564029
000110 ed 3c 53 3d 16 98 0d be f0 77 87 bd a4 8e 6f bd
       0.051571775 -0.13827547 -0.06614673 -0.058485642
000120 1c 42 60 3b ad f8 73 bd 50 2c a6 3b 15 48 29 be
       0.0034219092 -0.059563328 0.0050712004 -0.16531403
000130 93 fc 2c be 6d db 0b bd 89 03 e4 3d 23 27 f7 3d
       -0.16893224 -0.034144808 0.11133487 0.120680116
000140 49 2f 91 3d b3 f8 dc 3d 77 cb e6 bd 36 07 e2 3d
       0.07089097 0.10789623 -0.112692766 0.110365316
000150 e8 5e 82 3d ae 98 00 bd 89 06 0a 3e 26 aa d5 3d
       0.06365758 -0.031395607 0.13479055 0.10432844
000160 e7 a5 bd 3c 7c 0d 4d 3d 0c 2f 3b be e0 fd 4d 3d
       0.023150397 0.050061688 -0.18279666 0.050290942
000170 45 f1 27 3e 7a f7 93 bb 5b 44 0e 3e c2 85 f0 bd
       0.16400631 -0.0045155855 0.13893263 -0.11744262
000180 fd f7 b0 3c 86 02 8d 3d 31 df b2 3d 4a 59 da 3d
       0.021602625 0.06885247 0.08733977 0.10661562
000190 43 90 6e 3d 4f e2 db bd a7 ee e5 3c 7d df fd 3d
       0.058243047 -0.10736524 0.0280679 0.12396143
0001a0 63 11 aa 3d 49 01 ad 3d 23 1f 4d 3d bd ef 82 3d
       0.083040975 0.08447511 0.050078522 0.06393383
0001b0 a0 99 31 3e 0e b9 b1 3d 17 9d 30 3c 02 dc 24 bc
       0.1734376 0.086778745 0.010779641 -0.01006222
0001c0 5e 7e 21 be 20 ba 3c 3e 5c c8 d0 bd c1 03 e0 bd
       -0.15770862 0.18430376 -0.101944655 -0.10938216
0001d0 df 13 47 bb 76 a6 05 3e 1d a2 ce bd d7 0d 10 3e
       -0.0030376834 0.13051781 -0.100895144 0.1406778
0001e0 43 3d f8 3d 2b c1 a8 bd 63 5f 06 be 51 88 98 bc
       0.1212106 -0.08239969 -0.13122325 -0.018619688
0001f0 76 69 ec 3d 18 6c 30 be ef 2e b7 bc 4a c0 f7 bc
       0.115435526 -0.17228734 -0.022361247 -0.030243058
000200 8c 00 37 be ea 6a 97 3d 73 ef 0a be 08 fd 05 be
       -0.17871302 0.07393439 -0.13567905 -0.13084805
000210 f4 64 f3 3c 50 b8 24 bd d6 f1 28 3e 59 6b e1 bd
       0.029711224 -0.040214837 0.16498503 -0.11006803
000220 37 46 e1 bd 3a 9b 82 bd ad f0 bd bd e1 6c ca bd
       -0.109997205 -0.06377263 -0.09274421 -0.09884048
000230 a2 97 fc bd 61 f7 0e 3e a7 f6 66 bd ab 6f 91 3c
       -0.12333609 0.13961555 -0.05638757 0.017753443
000240 61 7a 61 bd a1 98 12 be 28 f4 85 bc 10 77 0f 3e
       -0.05504835 -0.14316036 -0.016351774 0.14010262
000250 d2 a3 90 3d e8 ea ce 3d 20 49 ba 3d 69 15 06 3e
       0.07062496 0.101033986 0.09095979 0.13094105
000260 c9 62 33 be f3 73 0e 3d 1e 8f 01 be 8a 9d 9f 3d
       -0.17518152 0.034778547 -0.12652251 0.0779372
000270 3c b2 ee 3d 54 68 a6 bd 6d 1c 07 3e 5d 43 3a be
       0.11655089 -0.08125368 0.13194437 -0.1818976
000280 ec 50 c1 3d 7f 9e ed 3d 98 d0 ea bd 8e 8f a1 3d
       0.09439263 0.11602496 -0.11465567 0.07888709
000290 a2 71 79 bd 51 fa 06 3e a0 c4 0a 3e d3 51 2a 3e
       -0.060899384 0.13181426 0.13551569 0.16632776
0002a0 3f b8 ed bd c5 4a ed bd 48 82 fe bd 98 fe 05 3d
       -0.11607408 -0.11586527 -0.12427193 0.032713503
0002b0 49 45 b3 bd ef d3 eb 3c 90 f1 d6 3d 05 6b 05 be
       -0.087534495 0.028787581 0.10495293 -0.13029106
0002c0 66 a1 3b 3e 4b a1 07 3e 31 7b 18 be 52 42 ae bc
       0.18323287 0.13245122 -0.14890744 -0.021271858
0002d0 65 ce a9 3d 0e 76 d1 bd 56 3e 10 bd 0a 1b 25 3e
       0.0829132 -0.10227595 -0.0352157 0.16123596
0002e0 eb 7a c7 bd bb 07 3c be 15 63 14 be f4 9e ab 3d
       -0.097402416 -0.18362324 -0.14490922 0.08379927
0002f0 4e 88 b8 bd 03 5c 19 3d 85 02 c6 3d 2f 75 00 3e
       -0.09010373 0.037441265 0.09668449 0.12544702
000300 47 ef f5 bd 13 f7 1a 3e 92 7f f1 3d 73 bd 39 bb
       -0.12008529 0.15133314 0.1179191 -0.002834168
000310 61 e7 36 be 07 82 41 be 5a 32 9b 3d f1 d9 f7 bb
       -0.17861702 -0.18897258 0.07577963 -0.0075638224
000320 09 f0 e2 bc 11 11 c3 bc 5a 88 fc 3d 61 05 7f 3d
       -0.027702348 -0.023811849 0.123306945 0.06226099
000330 9a 12 cf bd 6e 64 37 bd 68 f9 11 3e 9d d5 91 bd
       -0.1011097 -0.04477351 0.14255297 -0.071208216
000340 f5 59 0f be ec 18 19 bd b7 62 ed bd c3 eb 39 3e
       -0.1399916 -0.037377283 -0.11591094 0.18156342
000350 f8 ee 2b be 23 e6 ad 3d 6e fe 1e bc b2 9b 8a 3b
       -0.16790378 0.08491161 -0.009704215 0.004229986
000360 b1 2d 4c bd a7 06 40 3e 90 ca 13 bc 84 b9 25 be
       -0.049848262 0.18752538 -0.009020463 -0.1618405
000370 ea 05 49 3e cc c1 e0 bd 28 51 6b bd d7 51 4f bd
       0.19631162 -0.10974464 -0.057450444 -0.050615158
000380 43 69 b0 3b 85 c0 1a be 17 6b e3 bd 75 1b 23 3e
       0.005383642 -0.15112503 -0.1110441 0.15928443
000390 51 46 d0 bd fd 1d 95 bd 97 d2 c2 bc 53 bb 0b 3e
       -0.10169662 -0.072811104 -0.023782058 0.13645677
0003a0 6e cc 0c 3e 5d d3 2d be ca 4b 8d 3d 45 53 ac bb
       0.13749859 -0.1697516 0.06899221 -0.00525895
0003b0 90 ff 23 3e f7 ec d3 3d 02 89 dd 3d 57 21 48 3e
       0.16015458 0.10347932 0.10817148 0.19543968
0003c0 40 ea 30 3e 21 96 82 3d 46 4d 4b bd 68 26 14 be
       0.1727686 0.06376291 -0.04963424 -0.14467776
0003d0 80 a4 08 3e 5c 32 42 3e 42 be 0f 3e ce f8 2d 3e
       0.13344002 0.18964523 0.14037421 0.16989443
0003e0 16 c5 0c 3d ba bf 92 3d c0 f4 ff bd 55 f2 b3 bd
       0.034367643 0.07165475 -0.12497854 -0.087864555
0003f0 ab bf 3b bd 4e 30 85 3d 50 d8 f3 bd 5a 32 dd bd
       -0.045837086 0.06503354 -0.11906493 -0.108006194

conv_block_1.0.bias f4 [10]
000000 37 fe c7 bd 89 02 42 be b9 cf 2c 3e 75 40 23 be
       -0.097652845 -0.1894628 0.16876115 -0.15942557
000010 61 25 0c 3e aa ee ea 3d b7 64 cd bd 04 a3 12 3b
       0.13686134 0.11471303 -0.100289755 0.0022374997
000020 76 31 6a 3d d2 46 66 bd
       0.057176076 -0.056219883

conv_block_1.2.weight f4 [10, 10, 3, 3]
000000 37 f2 f9 3c 71 67 4f bd 2e 04 b6 bd c2 6e c2 3d
       0.030511005 -0.05063576 -0.08887516 0.094937816
000010 55 77 0a 3c aa 47 8d bd 67 36 b1 bd 6e 95 12 3d
       0.008451303 -0.068984345 -0.086529545 0.03578704
000020 21 39 84 3d c5 dc a6 3d e1 bb 9a bd 97 cc 1b 3d
       0.06456209 0.08147577 -0.07555366 0.03803691
000030 b8 ca 82 3d 78 ce 3f 3d 24 02 f2 bb b5 f9 5b bc
       0.06386322 0.046827763 -0.007385509 -0.013426234
000040 85 0b 85 bd ec 3b 08 3d 0d b8 e2 bd 0c e3 44 bb
       -0.06496338 0.03326027 -0.11070261 -0.0030042557
000050 d5 26 6c bd 6c bc 8f bd bb bb 50 3b e0 19 d6 bd
       -0.05765422 -0.070183605 0.0031850177 -0.10454154
000060 d8 2a 4c 3d 13 b7 53 bd a4 e5 d5 3c 75 d2 2e bc
       0.049845546 -0.051688265 0.026110478 -0.010670294
000070 53 91 ad 3d 73 de 86 3b e2 ee 09 bd 66 40 3e 3d
       0.08474984 0.0041158735 -0.033675082 0.046448134
000080 b5 c8 af 3d ab d6 84 3d bc 29 e0 3b 44 df c6 3d
       0.08583204 0.06486257 0.0068409126 0.09710553
000090 39 0e 63 bd 42 2e ed 3b 27 47 95 3d c6 63 13 bd
       -0.055433486 0.0072381804 0.07288962 -0.035983823
0000a0 21 60 8e bd ea 01 77 3c 4f ef f9 bd dc 38 7f bd
       -0.06951929 0.01507614 -0.122038476 -0.062310085
0000b0 eb f8 aa bc 9a 46 87 bc 27 2c 56 3d 95 e3 90 3c
       -0.020870646 -0.016513158 0.0522882 0.017686645
0000c0 cc 8b 10 3d b1 0c d8 bd 0f b5 a0 bd 3d 21 9d bd
       0.03528957 -0.10549296 -0.07847034 -0.07672355
0000d0 ae f8 45 3d 34 d1 d6 3d 7a d1 71 3d 87 63 8a 3c
       0.048332863 0.10489121 0.059037663 0.016893161
0000e0 8d 65 8c bd 69 a4 93 3d 23 33 f3 3b dc 49 dc bd
       -0.06855307 0.07209093 0.0074218675 -0.10756275
0000f0 92 ea 88 3d 7b dc 64 3d 6c 9e b5 3c d1 46 99 3d
       0.06685366 0.05587433 0.022170268 0.0748421
000100 e0 ad da bd 36 6d 36 bd 8d 5a 09 bd ff 4d b1 3c
       -0.10677695 -0.044537745 -0.03353362 0.021643637
000110 88 f8 98 bd 66 83 b1 bc 09 74 ce bd 48 17 f8 bc
       -0.074692786 -0.021669101 -0.10080726 -0.030284539
000120 c0 cf 40 3d e5 5e 73 bd 8e a7 c1 bd 64 51 b7 bd
       0.047073126 -0.05941667 -0.09455787 -0.08951071
000130 3c 60 22 3d e1 b0 7d bc 16 c1 4d 3c 42 55 22 bd
       0.039642558 -0.015484066 0.012558242 -0.03963209
000140 b3 66 7f bb 49 ec a6 bd ef a3 cb 3d 82 94 b2 bd
       -0.0038971126 -0.081505366 0.09943377 -0.08719732
000150 52 7c 93 bd 61 1e 9e bc 6c d4 8e 3d 18 68 ad 3d
       -0.072014466 -0.019301595 0.0697411 0.0846712
000160 d4 01 a3 bd ef 81 15 3d 1b 94 42 3c 97 82 83 3d
       -0.07959333 0.036500867 0.011876131 0.064213924
000170 cc ee 10 3d 4c c3 59 3d b2 95 c2 3d 9d c9 10 3c
       0.035383984 0.053164765 0.09501208 0.008837131
000180 9b 01 3e 3d 37 4e 95 3d fe e1 b3 bd 4d 47 79 3b
       0.04638825 0.07290309 -0.08783339 0.0038036883
000190 23 7c 59 3c e6 b8 25 3d ed 19 13 3d 64 4b 85 bd
       0.013274225 0.040459536 0.035913397 -0.0650852
0001a0 bf c7 c9 bc 2a dd 1d bd 30 03 8e 3d e2 54 81 3c
       -0.02463138 -0.038540997 0.06934202 0.015787546
0001b0 3d 6e 9c bd 6a a3 0a 39 72 d7 21 bd 1e 9f cf bd
       -0.07638214 0.00013221582 -0.039512105 -0.10137771
0001c0 dd 63 96 bd f5 32 8e 3c 40 d8 70 3d 76 59 a8 3d
       -0.07343266 0.017358283 0.058799982 0.08220188
0001d0 95 16 05 3d 70 da 87 bd 86 57 3d bd 42 98 1e bd
       0.03249224 -0.066334605 -0.046226047 -0.038719423
0001e0 a5 51 51 3d 95 dc 2d bd dc aa 89 bd 9b 7a 69 3d
       0.051103253 -0.04244669 -0.06722042 0.05700169
0001f0 ef 45 91 bd a7 db 29 bc 02 f5 20 3d a3 a9 b7 3d
       -0.07093417 -0.010367311 0.039296158 0.089679025
000200 b4 59 2a bd 12 b6 a8 bd 99 9c 55 3c 0f 61 d7 3d
       -0.041589454 -0.08237852 0.013037824 0.10516559
000210 8e 93 d5 3d 60 55 8a ba 76 00 8f bd 00 7f b3 3d
       0.104285344 -0.0010554008 -0.0698251 0.08764458
000220 5c ad 92 3d a8 2e 88 3d 4c 37 7c 3d 83 e8 a4 3d
       0.07161972 0.06649524 0.061576173 0.080521606
000230 01 7b ac bd 34 f6 5c 3d 80 be 1d 3c f6 40 f0 ba
       -0.08421899 0.053945735 0.009627938 -0.0018329907
000240 b3 20 ca 3c 99 d6 22 bc 55 63 87 bd 34 26 56 bd
       0.024673795 -0.009938859 -0.06610743 -0.052282527
000250 dd a7 04 3d e7 0e 87 3c 41 8e fd 3c 1b e3 34 3d
       0.03238665 0.016486598 0.030951621 0.044161897
000260 38 33 70 3d 99 91 ab 3d 6e a2 af 3d 74 38 38 3d
       0.058642596 0.0837738 0.08575903 0.044975713
000270 04 91 b3 bd 02 ab 7e bd 7a 0a e9 3c 18 6d 2d bd
       -0.08767894 -0.062174805 0.028447378 -0.042340368
000280 8d 64 d5 3c dc c7 f5 bc 29 ab 34 3c 0b f5 d4 3c
       0.026048923 -0.030002527 0.011027136 0.025995752
000290 7c da 80 3d 5a 4f 19 bd dd 6a 86 3c 7d 27 30 bd
       0.062916726 -0.03742919 0.016408378 -0.04300641
0002a0 f5 32 c3 bc ea 53 b5 bc f0 de b8 3d 1b 35 ff 3c
       -0.02382801 -0.02213474 0.09026897 0.031153252
0002b0 dd 50 6c bd a9 5c ba bc d3 3e 0a bd 46 60 d8 bd
       -0.057694305 -0.022749262 -0.03375132 -0.10565238
0002c0 34 bc a8 bb 54 64 96 bd 29 8e f7 bd fb 7e 27 bd
       -0.0051493887 -0.07343355 -0.12087662 -0.040892582
0002d0 60 8d bd 3d b5 d7 b9 3d 01 11 3d 3d b4 45 aa 3d
       0.09255481 0.09074346 0.046158794 0.08314076
0002e0 92 bd 29 3d 69 5e cc bd ff 51 c1 bd 89 f8 8c 3d
       0.041440554 -0.09978945 -0.09439468 0.06883342
0002f0 5e 5e e0 bd 64 ca 0f 3d 0f 1d 1a 3d 6e e0 cb bd
       -0.10955499 0.035105124 0.03762537 -0.09954916
000300 e5 64 c4 bd f0 de 03 3d 60 b2 a2 bd 29 f9 b0 3d
       -0.095895566 0.03219503 -0.079441786 0.086412735
000310 6b be 2b bb 31 ae 77 3d 36 ee 00 bd 5f 64 01 3b
       -0.0026206027 0.060468856 -0.031477176 0.0019743664
000320 f7 30 b0 3d 43 93 fb bc a5 0b bc 3d a3 cc 6f 3c
       0.08603089 -0.030709868 0.091819085 0.014636192
000330 4b 98 90 3b 0f 69 9c 3d f7 a3 80 3b f6 c6 05 bd
       0.004412686 0.07637226 0.003925796 -0.032660447
000340 93 33 44 bd b2 c2 2c 3d 24 f6 bd bd 21 4e 63 3d
       -0.047900748 0.042177863 -0.09275463 0.05549443
000350 25 fe 11 bd 07 03 bb 3d a2 bb f7 3c f4 2c c9 3c
       -0.03564276 0.09131437 0.030240837 0.024557568
000360 ab d8 d6 3c 36 d7 b7 3d 4a 83 8d bd 2d 8d a8 bc
       0.026226362 0.08976595 -0.06909807 -0.02057513
000370 96 bc ec 3d 97 92 20 bb 4f 67 b6 3d 46 ba 81 bd
       0.115594074 -0.0024501437 0.08906423 -0.06334357
000380 81 e4 33 3d 01 bf 97 bc 3d 08 72 3d 68 36 b3 3d
       0.04391909 -0.018523695 0.059089888 0.087506115
000390 e8 85 b1 ba 88 a5 69 bc 87 62 d8 3d 95 e8 e7 3d
       -0.0013543935 -0.014260657 0.105656676 0.113236584
0003a0 4b e6 ab bd 94 3a 80 bd 48 d9 e4 3d da 06 23 3d
       -0.08393534 -0.06261173 0.111742556 0.039801456
0003b0 eb 24 b8 ba e1 94 df 3c e3 39 dc bc 89 a5 a9 3d
       -0.0014049088 0.02729267 -0.026883071 0.082835265
0003c0 b4 eb af bd a6 aa e1 3d 57 98 17 bc 97 06 6e bd
       -0.08589879 0.11018877 -0.009252629 -0.058111753
0003d0 02 c2 3b bd ab 7d 59 bd 09 7c 4e bd 97 74 c0 bb
       -0.045839317 -0.053098362 -0.050411258 -0.0058732736
0003e0 f2 f6 90 3c bd b6 77 3d e1 0b 07 3d 50 44 f8 3d
       0.017695878 0.060477007 0.032970313 0.121224046
0003f0 35 3c 01 3d 63 a9 e5 3c 41 8b 94 bc cc 8f ea 3b
       0.03155156 0.028034871 -0.018132808 0.007158255

conv_block_1.2.bias f4 [10]
000000 e4 2a 81 bd 99 2a 95 bc 7b 03 02 3c 58 9f cc bb
       -0.06307009 -0.018208789 0.0079354 -0.006244581
000010 2d 36 d3 bd 08 b4 30 3c 8d 65 e1 bd 51 6b ab 3b
       -0.103130676 0.01078511 -0.110056974 0.005231299
000020 33 d6 95 3c e0 7e c7 3d
       0.018290615 0.09740996

conv_block_2.0.weight f4 [10, 10, 3, 3]
000000 61 de a5 3c e8 bf 83 3c 4d 40 b1 bd 8e 5d 6c bd
       0.02024764 0.016082719 -0.086548425 -0.05770641
000010 4a 8c 40 bd ee 7f 1a bc b7 53 86 bd d3 2a b3 bd
       -0.04700879 -0.009429915 -0.06558936 -0.087484024
000020 a2 4c cf bd 9f 79 d3 3d 08 70 bc 3d 83 c8 60 3d
       -0.101220384 0.10325932 0.09201056 0.054878723
000030 60 94 2c bb 16 a7 a3 bd b7 76 56 bd 39 c9 9c bd
       -0.0026333556 -0.079908535 -0.05235931 -0.07655568
000040 31 d9 59 bc f8 b4 20 bc 90 5b 4b bd 13 5b b8 bc
       -0.013296411 -0.009808771 -0.049647868 -0.022504365
000050 f1 df 0a 3c c8 ed 16 3d 65 86 14 3d 86 a9 6b bb
       0.008476243 0.03684786 0.03626098 -0.0035959198
000060 3a d8 b4 3d ed 42 58 bd aa ea 9a 3d 35 26 91 bd
       0.088303044 -0.0527982 0.0756429 -0.070873655
000070 0d a5 11 3d c4 6f 7a 3d 7e 08 92 bc ec 9f c6 bd
       0.035557795 0.061141744 -0.017826315 -0.096984714
000080 28 2a 5d 3d ab 4e cf 3d 0f 80 44 bc 82 17 17 bc
       0.05399528 0.101224266 -0.011993422 -0.009221913
000090 52 1c 25 3c 2f 5b 87 3c 12 42 62 bc c9 84 d6 3d
       0.010077553 0.016522972 -0.013809698 0.104745455
0000a0 e8 87 ae bd e3 5c 3a 3d 91 d6 44 3d 7a 39 0f bd
       -0.08522016 0.04549874 0.04805619 -0.034966923
0000b0 2b e1 96 bd 51 55 bb 3c c0 f2 8b 3d 4a 3e 91 3d
       -0.07367166 0.02286783 0.0683341 0.07091959
0000c0 0d 88 cf 3d 70 ef b4 3c 82 45 a7 3c 92 d0 e7 bb
       0.101333715 0.022086829 0.020418886 -0.007074424
0000d0 02 35 b1 bd cc 98 61 bd fd ed 85 3d a7 dc d1 bd
       -0.086526886 -0.05507736 0.06539533 -0.10247164
0000e0 92 fb 8a bd cb fc 9d bc 51 25 91 3c 6f d1 96 bd
       -0.067862645 -0.01928558 0.01771799 -0.07364165
0000f0 bd 80 85 3c 31 ad 0b bc 8a 5f c2 bd bd b1 15 3c
       0.016296739 -0.008525179 -0.09490879 0.009136614
000100 c9 d6 d1 3b e7 03 b6 3d e8 4a 96 3d cb 7f 54 bd
       0.006403778 0.08887463 0.07338506 -0.051879685
000110 46 f4 be bd 62 23 8b 3d da bc 6f bd cb 03 88 3d
       -0.09323935 0.06793858 -0.058529712 0.066413485
000120 e3 5a 86 bc 3a 6e 8d bd ce 1f b9 bd 3c b8 4d bc
       -0.01640076 -0.0690579 -0.090392694 -0.012556132
000130 d8 26 38 bb a8 10 50 bd b9 77 95 3d dc d5 28 3d
       -0.0028099325 -0.050797135 0.07298226 0.041219577
000140 2d 40 aa 3d 3e bb a4 bd 93 86 ca bd 2c 78 93 bd
       0.08313022 -0.08043526 -0.09888949 -0.07200655
000150 6a 3c b5 3d 64 c3 6e bd d6 44 98 3d 9a cf d2 3c
       0.08849414 -0.058291808 0.074350044 0.025733758
000160 0a b7 d2 bc 41 18 9a 3d 4a 0a 85 3c 8e 20 71 3c
       -0.025722045 0.07524157 0.016240258 0.014717234
000170 ad 52 72 bd d7 c6 ad bc d6 77 be bc 91 40 54 bd
       -0.059160877 -0.021212978 -0.023250502 -0.051819388
000180 5a 7b bb 3d be 6e b5 bc 1b 7e b6 3c 3f 90 02 3d
       0.09154387 -0.022147533 0.022276929 0.031875845
000190 7c 7e 97 3d c2 1d 29 3c b0 e7 bd 3c b9 dd a4 bd
       0.07397172 0.010322036 0.023181766 -0.08050103
0001a0 1c ee 5f 3d 39 03 2d 3c 93 d6 6d 3d e0 79 c6 3c
       0.05467044 0.01055985 0.058065962 0.024228036
0001b0 60 85 e2 bc 1f 56 d3 bd 2f 98 8a 3d 07 fa a0 bd
       -0.027651489 -0.10319161 0.06767308 -0.07860189
0001c0 13 49 58 bd f0 86 d6 3c f6 2e 8b 3c c7 14 c4 bc
       -0.052804064 0.02618739 0.016990166 -0.023935689
0001d0 3d 51 ab bd de aa c6 3d 0a ec 0c 3c 2f ca 72 3d
       -0.08365104 0.09700559 0.008601198 0.05927485
0001e0 a4 e3 a9 bd cc 43 39 bd 4c 0a 8d 3d 51 9f 0d bb
       -0.08295372 -0.04523067 0.068867296 -0.0021609853
0001f0 e1 95 d5 3d 3a 1e a4 3c 92 5b be 3d ab 6a 42 bd
       0.10428978 0.020033944 0.092948094 -0.047465008
000200 d8 a4 83 3d fa 37 56 bd 5c bd 44 3d ec 55 d1 bb
       0.06427926 -0.052299477 0.04803215 -0.0063884165
000210 95 05 b1 bd 86 31 46 3d 8c d4 85 3d f4 72 5c bd
       -0.08643643 0.048387073 0.06534681 -0.053820565
000220 fb 08 34 3d 8c 0e d9 3a 23 09 2b bc c5 66 e4 3c
       0.043953877 0.0016560121 -0.01043919 0.027881036
000230 10 d3 dd bd b9 40 19 3d ea 94 06 3d 2e 93 9f bd
       -0.108312726 0.03741524 0.03285686 -0.07791744
000240 d7 c7 a5 bd d3 f3 c8 3d 02 0e b7 3c bd 47 1c 3d
       -0.08094757 0.09812131 0.022345547 0.038154352
000250 7b 23 a7 3d cb 7d 69 3d bb 6e 9c bc ab 75 96 3d
       0.08161064 0.05700473 -0.01909577 0.07346662
000260 fb df 0e 3c 5a 1b c7 bd a1 08 97 3b 8d ed b2 3d
       0.008720393 -0.09722014 0.004609183 0.087367155
000270 a9 ae 0a bd 04 d0 ac 3d 2b 3d 98 3d cb 59 93 3d
       -0.033857975 0.08438113 0.07433542 0.07194861
000280 ed 9e f7 3c 93 51 e1 bd 01 8c 85 bd 0e ea 18 3d
       0.030227149 -0.11001887 -0.06520844 0.037332587
000290 97 e6 93 3d e2 6a a0 bd aa fe 9a bd d1 6e cb 3d
       0.07221716 -0.07832886 -0.075681046 0.09933246
0002a0 c4 a2 a7 bc ee 3e 19 3d c4 b6 97 3d 09 98 d0 3d
       -0.020463355 0.03741353 0.07407907 0.101852484
0002b0 a1 dc 92 3d 84 0f 70 bc f5 76 87 3d 1e 18 d1 3d
       0.07170988 -0.014652137 0.06614486 0.10209678
0002c0 56 18 a3 3d 64 bb d4 3d 33 68 68 3d 43 2b c8 3c
       0.07963626 0.103873044 0.056739997 0.024434691
0002d0 db 41 c4 bd 46 aa 96 bd a4 6d 91 bd d6 83 9b bc
       -0.095828734 -0.07356696 -0.071009904 -0.018983763
0002e0 0a d7 e4 bd da 24 9d 3d 73 ff bb bc 5e 74 6b 3d
       -0.11173828 0.076730445 -0.022948956 0.057484023
0002f0 ec 36 a0 3d 9b e8 87 bd 5a 78 5d 3d 5c da b2 bd
       0.078229755 -0.06636163 0.054069854 -0.08733055
000300 e5 c1 4a 3d 2a 58 45 3d e7 56 8f 3d c3 2f 05 3d
       0.04950132 0.048179783 0.06998997 0.032516252
000310 8a 49 8f bd 78 ee 1e bd 86 23 d5 3c bb af 83 bd
       -0.06996448 -0.03880164 0.026017915 -0.06430002
000320 71 73 78 bc d3 9c 21 3d ef 90 a6 3d d7 8d e7 bc
       -0.015164242 0.0394562 0.08133113 -0.028265877
000330 1c 43 68 bd f8 1c 54 bd 2d 3d 70 3b b6 c2 cb bd
       -0.056704625 -0.05178544 0.0036657557 -0.099492475
000340 16 2e a2 bc 48 da 21 3d 02 74 3c 3d 23 4a 65 3d
       -0.019797366 0.03951481 0.04600907 0.055978905
000350 67 9d 8f bb 08 c5 50 3d ce ed 31 3d a3 6c 08 bd
       -0.0043827775 0.050969154 0.04343968 -0.03330673
000360 f1 65 8f 3d e5 74 c6 3d 85 28 d5 bd 9b c4 c7 bd
       0.07001866 0.096902646 -0.10408119 -0.097542964
000370 4f 5e 75 bd 6c 5a 20 bc 3a a4 d6 3d 9b 7d b9 3b
       -0.059904393 -0.009787183 0.104805425 0.0056607253
000380 0e c2 82 bc 7a 5d f9 3d a4 df 21 3c 70 2d e7 3d
       -0.015961673 0.12176032 0.00987998 0.112879634
000390 92 b2 9a 3d d1 44 f5 3c 50 fa ae 3d a9 c3 e1 3c
       0.07553591 0.02994004 0.08543837 0.027559118
0003a0 1f 67 97 bd 6a a0 6e 3d 60 ca 6c 3d f3 e3 8b 3c
       -0.07392716 0.05825845 0.057810187 0.017076468
0003b0 c8 2b 36 bd 44 c2 58 bd 34 95 87 bd 08 c2 a9 bd
       -0.044475347 -0.05291964 -0.06620255 -0.08288962
0003c0 88 f3 8f 3d 57 3f 15 3d d8 bd 61 3d 9c 43 0f 3c
       0.07028872 0.03643736 0.05511269 0.008744147
0003d0 56 32 cc 3c fc b6 a8 3d f4 fa aa bc 42 9d eb 3c
       0.024926346 0.082380265 -0.020871617 0.02876151
0003e0 4a c0 46 bd a5 53 84 3d cd 14 8d 3d 52 56 12 bd
       -0.048523225 0.064612664 0.06888733 -0.035726853
0003f0 8b 15 ff bc 9b 52 ac 3d ea 41 27 bd fc 12 8a bd
       -0.031138202 0.08414193 -0.040834345 -0.06741902

conv_block_2.0.bias f4 [10]
000000 16 d9 cf bd ba fd 96 3d f8 56 ad 3d ec 93 cf 3d
       -0.10148828 0.07372613 0.084638536 0.10135636
000010 42 36 ac 3d 12 9f bc 3d 38 3a 61 3d 6c f4 76 bd
       0.08408786 0.09210028 0.054987162 -0.060291693
000020 07 ff ac 3d 20 e4 4f 3d
       0.0844708 0.050754666

conv_block_2.2.weight f4 [10, 10, 3, 3]
000000 42 a7 b4 bc 9d 06 04 bd 64 5f 5d 3a c4 c1 82 bc
       -0.022052411 -0.03223287 0.0008444695 -0.015961535
000010 25 a9 9d 3d ea d7 1e 3d 13 5a 0e 3d 14 34 62 bd
       0.076982774 0.03878013 0.03475387 -0.055225447
000020 aa a0 fe 3b 24 85 7e 3c bc a9 a8 bd 25 79 79 bd
       0.0077706175 0.015534673 -0.08235499 -0.060906548
000030 36 b5 bd bd 05 5b cd 3d d6 6d a4 bc f6 1d c7 3d
       -0.09263079 0.10027126 -0.020071905 0.097225115
000040 3d e3 cd bc 85 ea 68 bd 06 f6 c0 3d d7 f2 9d bd
       -0.02513277 -0.05686428 0.09421925 -0.07712334
000050 5c fc 81 bd 32 ee 66 3d 99 34 b1 bb 27 98 e0 bc
       -0.06346962 0.056379505 -0.0054078815 -0.027416302
000060 de 8a b8 3d 62 a9 51 bc f0 07 2c bd 43 b4 67 3d
       0.09010862 -0.012796732 -0.041999757 0.056568395
000070 98 c8 cb 3d b7 ce 7d bd 59 6b a1 3d 72 34 86 bd
       0.099503696 -0.061964717 0.07881803 -0.06552972
000080 20 da 98 bb 9a ce 9c bc 3e a9 ab 3d f9 c9 8d 3c
       -0.0046646744 -0.019141484 0.0838189 0.017308222
000090 07 c9 c5 bc 76 af 81 ba 07 c8 e9 bc 0b aa d1 3c
       -0.024143709 -0.000989421 -0.028537763 0.025593778
0000a0 e2 22 ca 3c c6 26 96 3d 01 56 b9 bc 76 75 85 3d
       0.024674837 0.07331614 -0.022624018 0.065165445
0000b0 95 6d c2 3d 25 db b3 3d 57 e9 c9 bd a6 47 c8 3d
       0.09493557 0.08782033 -0.09858959 0.09779291
0000c0 b2 50 51 bd d7 05 81 bd a2 bc 81 3d e3 d5 83 bd
       -0.051102348 -0.06299942 0.06334807 -0.0643728
0000d0 17 c1 c9 bc bc 1d ab 3d 1f 8d 80 bd 86 17 83 bc
       -0.024628205 0.08355281 -0.06276917 -0.016002428
0000e0 11 d8 d4 bd 09 29 99 bd 2e 92 56 bd 6f 15 bb bb
       -0.10392774 -0.0747853 -0.0523855 -0.005709342
0000f0 df 77 ca 3d 71 ef 60 bc e1 13 b6 3d 7a b0 6b 3c
       0.09886145 -0.013728962 0.0889051 0.014385337
000100 9d fb a6 3d 69 22 f5 3c 89 1f a3 3d d3 06 ca 3d
       0.0815346 0.029923635 0.07964999 0.09864583
000110 10 d2 30 3c 07 d8 29 3d d9 92 05 3d 6b 8a fb 3c
       0.01079227 0.041465785 0.032610748 0.030705651
000120 e9 d3 14 3d 6e a6 2f bd 2b 73 bc 3d 9e dd 1f bd
       0.036334906 -0.04288333 0.09201654 -0.03902971
000130 48 c7 71 bd 51 7a c8 3d 2a 70 0e 3d be aa 93 3d
       -0.05902794 0.09788955 0.034774937 0.07210301
000140 f0 ad af bc ed ee 62 bd 9b 0c ce bd 70 9d 7f 3d
       -0.021445245 -0.05540364 -0.10060998 0.062406003
000150 a6 c8 76 3c c3 fe b3 bd d4 f9 8f 3d 94 f3 a1 ba
       0.015062487 -0.08788826 0.07030073 -0.0012355917
000160 b8 e7 ce bd 85 e6 b1 3d 66 1e f7 bc d2 97 7e 3d
       -0.101027906 0.08686546 -0.030165862 0.062156506
000170 bc c2 a9 bd 3e 20 b6 bd 26 64 21 3d d3 c9 37 bd
       -0.08289096 -0.088928685 0.03940215 -0.04487021
000180 44 89 9f bd 89 14 86 3d 44 ce 95 3d 1a 22 ac 3d
       -0.07789853 0.065468855 0.07314733 0.08404942
000190 b6 88 4a 3d 37 97 e5 bb 6e a7 9a 3d dc cd 62 bc
       0.049446784 -0.0070065516 0.07551466 -0.013843026
0001a0 4e 6a c6 bd f0 a1 91 bd e0 32 a2 3d 9a b0 b1 bd
       -0.09688245 -0.07110965 0.0791986 -0.08676262
0001b0 8e 45 51 3d 9e 2a b2 bc 0d c9 bd bc 11 8e e6 3c
       0.051091723 -0.021748837 -0.023167158 0.028143914
0001c0 ee e7 95 bd 98 9b 9f 3b 28 36 67 3c 41 93 21 bd
       -0.07319628 0.004870843 0.014112033 -0.039447073
0001d0 12 9a 4b 3d ed bc b3 bd 51 ed bb 3d 03 ea c7 3d
       0.04970748 -0.08776269 0.09176124 0.09761431
0001e0 e7 a8 95 bd 8d a5 9a 3d 91 3a 7b 3d 62 a8 82 bc
       -0.07307606 0.075511076 0.06133515 -0.015949432
0001f0 79 95 2c bd 4b 67 b5 3d 1d e7 bc 3c 78 35 72 3d
       -0.042134736 0.08857592 0.023059422 0.059133023
000200 70 52 d2 3d c8 d8 d4 3d 9a 38 99 39 db ed 81 3b
       0.1026963 0.1039291 0.00029224606 0.003965122
000210 d8 90 ad 3d 4c c8 e3 bc cd bf e8 bc 1f 3d 66 bd
       0.084748924 -0.02780547 -0.02841177 -0.056210633
000220 35 39 63 3d ce 99 51 bd 50 42 cb bd cb ce be 3d
       0.05547448 -0.05117207 -0.099247575 0.093167864
000230 18 26 ca 3d 53 48 a8 bd e9 a1 c9 3d 87 40 ec 3c
       0.09870547 -0.0821692 0.09845335 0.028839363
000240 8c 51 ae bc 10 24 c7 bd 5f 00 96 3b 30 76 d8 bd
       -0.021279119 -0.09723675 0.004577681 -0.105694175
000250 ce 8a e4 ba 28 e9 a9 3c 4f 1d 9c 3d 73 a3 5d bd
       -0.0017436387 0.02074106 0.07622778 -0.054110955
000260 e1 4f df bd 53 35 8d bd f6 55 3c 3c 2f 29 c1 3c
       -0.109039076 -0.068949364 0.011495104 0.023579208
000270 21 75 b5 3d f0 bc a5 bb d1 a8 bf 3b a7 5e 10 3d
       0.08860231 -0.0050579235 0.005848982 0.035246518
000280 ec 3e 93 3d 06 a6 c4 3c 5b f8 f8 3c b8 d7 53 3d
       0.07189736 0.024004947 0.030391863 0.051719397
000290 77 a6 bc bd 83 01 09 3d 4a a9 97 bd 51 0e 6b 3a
       -0.09211438 0.033448707 -0.07405336 0.0008966672
0002a0 cf 96 03 3c df 59 e0 bd fc a1 c3 bd 97 bb f8 3c
       0.008031561 -0.109546416 -0.095523804 0.030362887
0002b0 ef 3b 52 3d 62 90 4e bc 57 79 af bd 42 ec 83 3d
       0.05132669 -0.012607666 -0.085680656 0.06441547
0002c0 69 21 29 bc 08 ae 18 bd 8b ed b1 3d ec 99 34 3d
       -0.010322907 -0.037275344 0.08687886 0.044092104
0002d0 cc ff cf 3d c4 5d c4 3d 82 bc 71 3d 94 48 a1 3d
       0.10156211 0.09588197 0.059017666 0.07875171
0002e0 3e bb 74 3b 91 f7 d2 3d a9 3a 80 bd 9b 3e a6 3d
       0.003734305 0.10301126 -0.062611885 0.0811741
0002f0 65 17 3f 3d 6c 1b b0 3d 9f 08 22 bd 6b a5 65 3d
       0.04665317 0.0859898 -0.039559003 0.056065958
000300 cb cd 63 3c ba 86 12 bd bc a0 cb bd 19 01 0d 3d
       0.013904045 -0.035773017 -0.09942767 0.034424875
000310 57 fa b1 3d f2 12 95 bd f7 1b 70 3d e9 ee 85 3c
       0.08690327 -0.07279004 0.05862042 0.016349273
000320 45 eb a9 3b 14 4f 29 bc 63 21 c2 bc a6 c7 50 bb
       0.005185517 -0.010333795 -0.02369756 -0.003185728
000330 c6 83 c6 3d 81 22 9c 3d 49 fd c7 3b a3 72 45 3d
       0.096931025 0.076237686 0.006103192 0.04820503
000340 ce f2 7f bd a4 80 bd 3d be 8e 8a bd 8f 7a c5 bd
       -0.062487416 0.09253052 -0.06765507 -0.09642517
000350 b1 a9 ce bd 43 11 aa bc 2b 0e 1c bd 07 8a c6 bd
       -0.1009096 -0.020760184 -0.03809945 -0.096942954
000360 7c 7f 3e bd f5 f2 d9 3c ba cb 06 3d 42 2c bc 3d
       -0.046508297 0.026605109 0.032909133 0.09188129
000370 ca 70 ab 3d 75 fc a3 bd b3 5d 4c bc a5 20 0c 3d
       0.08371122 -0.08007137 -0.0124735115 0.03421082
000380 a3 82 5b bd 6c d2 1c 3d 88 4e c4 bd 5f 56 a3 3d
       -0.05359138 0.03828661 -0.09585291 0.07975458
000390 99 2c 88 3d 71 9d 4f 3d aa 0c a0 3d 74 ea 8b 3d
       0.06649131 0.050687257 0.078149155 0.06831828
0003a0 66 88 48 3d 5a 0a 24 3d ad 64 23 bd 69 16 a6 3d
       0.048958205 0.040048935 -0.039890934 0.08109743
0003b0 40 10 51 3d e7 c9 73 3b 7b 2c 40 bc 7f 18 e0 bb
       0.051040888 0.00371992 -0.011729355 -0.0068388577
0003c0 60 d8 7d 3c 7d 93 69 bd 50 b2 93 3c 90 49 bd bd
       0.015493482 -0.05702542 0.018029362 -0.092425466
0003d0 16 0e 63 3d 3f dd 9b bd b3 fc 8b 3d 82 90 9b 3c
       0.055433355 -0.07610559 0.06835308 0.018989805
0003e0 d1 fb 68 3d 10 eb 74 bd 99 69 6a 3a e1 76 34 bd
       0.056880776 -0.059794486 0.0008942127 -0.044058684
0003f0 1f 59 8c bd f4 d3 02 3c 32 0d af 3d f4 95 c7 bd
       -0.06852936 0.007985104 0.08547439 -0.09745398

conv_block_2.2.bias f4 [10]
000000 14 7f 64 bd fe 7c 60 3d 00 25 f2 3c df 88 d0 3d
       -0.055785254 0.0548067 0.029558659 0.10182356
000010 3d ca 3d 3d 38 ee 9c 3c 3b f4 97 bd 21 5e 95 bc
       0.046335448 0.01915656 -0.0741963 -0.01823336
000020 94 35 5b bd ac f3 ba 3d
       -0.053517893 0.09128508

classifier.1.weight f4 [3, 1690]
000000 d4 7e b3 bc 77 c3 9c bc 2d f5 a2 bc 19 89 9e 3c
       -0.021911062 -0.019136174 -0.0198923 0.019352483
000010 d1 76 b7 bc c8 c1 a3 bb 8a 38 ce bc 35 dd 39 ba
       -0.022395523 -0.0049974658 -0.025173444 -0.00070901524
000020 ae a0 96 3c 2f a4 51 3c 22 b5 7c bc 67 b2 3e bc
       0.018387165 0.012795492 -0.015424045 -0.011639214
000030 48 34 a3 bb 41 1f 85 3a 34 f9 05 3a a6 27 15 bc
       -0.0049805976 0.0010156409 0.00051106815 -0.009103691
000040 fa 63 80 3b b4 1f 65 bc 57 5c fa bb db 93 40 bc
       0.003918168 -0.013984609 -0.0076404023 -0.0117540015
000050 79 ec 02 bc 5c 6c 5e bc 91 31 1a bc 37 7a 35 bb
       -0.00799095 -0.01357564 -0.009411232 -0.0027691254
000060 07 b7 3c 3b a0 7f ca bc 4a da a7 3c ed 8c 1d bc
       0.0028795616 -0.02471906 0.02048983 -0.009616119
000070 09 d7 67 3a bb 99 8b 3c 25 16 c0 3a 86 78 56 3c
       0.00088439934 0.017041078 0.0014655037 0.013090258
000080 a8 ee be 3b f0 d3 8a bb b4 63 f5 3b c8 89 8b bc
       0.00582679 -0.0042366907 0.007488692 -0.017033473
000090 f8 c2 99 3b 99 e3 2d bc fb 5d 9d 3c 44 18 77 bc
       0.0046924315 -0.010613346 0.019209852 -0.015081469
0000a0 51 91 5b bc 6b 9f 2c 3c bd 2a f8 bb 9d da 9c 3c
       -0.013401345 0.010536055 -0.007573454 0.019147212
0000b0 fb 8b e8 ba d2 2d fb 3b 29 1c a9 bb 61 80 ab 3c
       -0.0017741913 0.0076653743 -0.0051608277 0.02093524
0000c0 d5 4f 97 bc 62 c4 43 3b 15 82 94 bc 57 37 92 ba
       -0.018470684 0.0029871692 -0.018128434 -0.0011155409
0000d0 98 fe 87 bc 67 2b a0 3c dc c9 2c bc 54 3a 8e 3c
       -0.016600892 0.019551946 -0.010546174 0.017361797
0000e0 3e 2c 84 ba 26 78 10 3c af fe 8c 3c 09 cc 44 3c
       -0.0010083986 0.008817708 0.017211286 0.012011536
0000f0 84 4d 7d 3c 0d ab 96 bc 5c 48 c7 bb 2d 5a a2 3c
       0.015460376 -0.01839211 -0.006081624 0.01981839
000100 3f 29 b2 bc 97 c1 6b bc 90 82 b3 3c bb 07 35 3c
       -0.021748183 -0.014389417 0.021912843 0.011049206
000110 bc 91 ac 3a 92 37 e3 bc 63 96 16 3c 60 ba 08 bc
       0.0013165991 -0.027736459 0.009191128 -0.0083452165
000120 fe 44 da 3c 76 b2 cc bb 0f e3 bd 3c 49 da 03 bc
       0.026644226 -0.00624686 0.023179559 -0.008047649
000130 f3 ce 02 bc b0 5b 84 3c d5 b2 89 bc be 06 c1 bc
       -0.007983911 0.016157001 -0.016808907 -0.023562785
000140 b1 59 b0 3c af 0a 87 bc 78 fd b9 bc 03 eb 80 bc
       0.021527143 -0.016484587 -0.022703871 -0.015737062
000150 b7 3a ec bb 26 a6 c5 3b 6c f6 55 bc 43 85 79 3c
       -0.007209148 0.0060317693 -0.01305924 0.015229526
000160 96 9c 40 b9 28 67 68 bc 90 9c 88 bc e4 f1 1c 3c
       -0.0001836888 -0.014184751 -0.016676217 0.009579156
000170 3b 84 9e 3b d2 82 f1 bb f2 55 58 bb ec d2 d5 bc
       0.0048375404 -0.0073703313 -0.0033010212 -0.026101552
000180 e6 df ed bc d9 b6 57 3c 44 f2 87 3c 39 8b 9d bc
       -0.029037427 0.013166153 0.016595013 -0.019231426
000190 e3 9c 83 3c 76 d8 9b 3c b5 51 9a bb 49 3e ac bc
       0.01606602 0.019024115 -0.0047094473 -0.021025794
0001a0 5c 9c 81 bc 24 75 26 bb 04 ee 6a bc 75 db ed ba
       -0.015821628 -0.002539941 -0.014338974 -0.0018147068
0001b0 e1 79 d6 bc b2 56 0e 3c ab 75 fb bc 56 52 a0 bc
       -0.026181163 0.008687662 -0.030695757 -0.01957051
0001c0 7c a2 d9 3c 7a 7b 68 3c 6e 2a 1e 39 1e ae 8b bc
       0.026566736 0.014189595 0.0001508386 -0.017050799
0001d0 0a 01 0d 3c 86 16 31 bc eb 68 c9 3b 26 14 25 3c
       0.008606205 -0.010808593 0.0061465404 0.010075605
0001e0 12 ae 46 ba b8 ff 73 3c 7d 04 a8 bb fd f2 22 bc
       -0.0007579039 0.014892511 -0.005127488 -0.009945628
0001f0 6f 81 c0 3b 3a be 22 3c 34 58 3b bb 26 7b 48 bb
       0.0058748047 0.009933049 -0.0028586509 -0.003059098
000200 41 90 d3 3c cd ef c6 bb c1 e0 83 bc 35 a9 15 bc
       0.025825622 -0.006071067 -0.016098382 -0.00913458
000210 b0 f2 7c 3b 88 b6 c6 3b d8 02 19 3c 4f 24 be 3c
       0.0038596801 0.00606424 0.009339057 0.023210673
000220 53 e4 6b 3c 82 16 ce 3b 3a 72 36 bc 64 ac cb bb
       0.014397698 0.0062893042 -0.011135632 -0.006215619
000230 87 de 20 bb c3 fb db 3c 71 94 e1 bc 32 e8 84 bc
       -0.00245467 0.026853448 -0.027536603 -0.016224
000240 0c 04 ce 3c 69 4c f6 3b 31 0f fb bb cc 02 32 3c
       0.025148414 0.007516433 -0.007661723 0.010864925
000250 16 ff 1d 3c e4 3c d5 bc a2 ca 1a 3c a1 54 3e ba
       0.009643337 -0.026030011 0.0094477255 -0.00072605355
000260 8f f2 1d 3c 85 6f c4 3b 63 b1 9e bc 63 f3 7a ba
       0.00964035 0.0059947395 -0.019371694 -0.00095730106
000270 34 c6 69 bc 16 28 5d 3c 0e 90 0d 3c ec 0b 42 bc
       -0.014268447 0.013498327 0.008640302 -0.011843663
000280 1e e7 47 3c d3 c3 0e bb 9d 41 f4 bc 7d 51 30 3c
       0.012201099 -0.00217842 -0.029816443 0.010761616
000290 7c 09 8b 3c ac 3d 1f 3a b7 09 39 bb ac b0 ba bb
       0.016972296 0.00060745585 -0.002823455 -0.0056973305
0002a0 4f b1 b3 bc c7 4c 91 3c 53 6d 96 3c b1 f5 81 3c
       -0.021935133 0.017736806 0.018362677 0.015864225
0002b0 ff 2c bf bc 6a 91 29 39 4e 83 89 3c 89 88 4b 3c
       -0.023336885 0.00016171267 0.016786244 0.012422689
0002c0 2d de 88 3c a6 77 98 3c 5e df ad bc 65 3a 99 bc
       0.016707504 0.01861174 -0.021224674 -0.018704602
0002d0 5b e8 77 bc 81 c7 cd bb 5a 7d 62 bc 35 2f 12 bc
       -0.015131081 -0.0062798862 -0.013823831 -0.008922388
0002e0 c5 a8 f8 bb 98 11 42 bb e8 6a bb bc 60 5b e8 bc
       -0.0075884783 -0.0029612537 -0.022878125 -0.028363883
0002f0 49 a6 9a bb d6 4d 8c bc e7 2b bd bc bb ed ad bc
       -0.0047195298 -0.017126959 -0.023092223 -0.021231523
000300 55 34 92 bc 16 f5 f3 ba c1 72 0b bc 4f aa 60 bc
       -0.01784722 -0.001861247 -0.008511246 -0.01371248
000310 29 06 5f 3c 43 f8 d3 bc ae ab be 3b 64 ab d1 3b
       0.013612309 -0.025875216 0.0058188057 0.006398605
000320 aa aa e1 bb 5d 2a 39 bc 26 15 e7 bc 69 3a 92 3b
       -0.0068868 -0.011301604 -0.028208327 0.0044625294
000330 5b 49 26 3c 1f a6 d6 bc cc 54 a5 3c 0d 77 c0 bb
       0.010149325 -0.02620226 0.020182036 -0.005873567
000340 5f 8f d9 bc fd a0 0d 3b 08 06 c8 bb c6 19 5b 3b
       -0.026557622 0.002161085 -0.0061042346 0.003343211
000350 60 c4 fa bc 00 73 a6 3b b6 4e 5d bc a5 01 52 bb
       -0.030611217 0.005079627 -0.013507536 -0.0032044437
000360 95 d8 e4 ba 4e 47 da bc 0e 69 02 39 5c 23 46 bc
       -0.0017459566 -0.026645329 0.00012436902 -0.012093391
000370 89 0e b1 bc 90 e7 cc bc d6 d4 f9 3b 54 92 3a bc
       -0.021613376 -0.025012761 0.007624249 -0.011387426
000380 8a e0 16 bc bf c0 ad bc 11 38 fb bb fa d3 94 bc
       -0.009208808 -0.021210073 -0.0076665957 -0.018167485
000390 db 5d ce bc 8b 7e 08 bb 6a 01 7b bc 56 f3 23 3a
       -0.025191238 -0.0020827379 -0.015320161 0.00062542164
0003a0 70 0d dd 3b 2f ba 9a 39 5e 0f b9 bc 1c 8b 89 3c
       0.0067459866 0.00029511887 -0.022590335 0.016789965
0003b0 ab 78 9f bc 29 0a e4 bc f9 a7 d0 bc 08 7a 89 bc
       -0.019466719 -0.027836876 -0.02547072 -0.016781822
0003c0 c6 0b ca bc 84 70 33 3c ee bb 1f 3a ef 2c 38 bc
       -0.024663817 0.010952119 0.00060933724 -0.011241182
0003d0 c7 7c 86 3c fc 40 64 3b 51 dd 55 ba 3e 74 b6 bc
       0.01641692 0.0034828773 -0.0008158284 -0.022272225
0003e0 d4 3a 1a 3c da ac 7f 3c ec 66 fd 3a a0 6b c6 bb
       0.00941344 0.015605176 0.0019333041 -0.0060553104
0003f0 fd a9 e1 bc 97 a3 a2 3b 5d 83 94 bc 2d 69 97 3c
       -0.027546877 0.004963349 -0.018129045 0.018482769

classifier.1.bias f4 [3]
000000 0e 47 44 3c e7 dd 44 ba 37 cd 44 3c
       0.011979831 -0.00075098727 0.012011818
